<?xml version="1.0"?>
<net name="Model325" version="11">
	<layers>
		<layer id="4" name="y" type="Parameter" version="opset1">
			<data shape="?,513,?" element_type="f32" />
			<output>
				<port id="0" precision="FP32" names="y">
					<dim>-1</dim>
					<dim>513</dim>
					<dim>-1</dim>
				</port>
			</output>
		</layer>
		<layer id="3" name="y_lengths" type="Parameter" version="opset1">
			<data shape="?" element_type="i64" />
			<output>
				<port id="0" precision="I64" names="y_lengths">
					<dim>-1</dim>
				</port>
			</output>
		</layer>
		<layer id="2" name="sid_src" type="Parameter" version="opset1">
			<data shape="?,256,?" element_type="f32" />
			<output>
				<port id="0" precision="FP32" names="sid_src">
					<dim>-1</dim>
					<dim>256</dim>
					<dim>-1</dim>
				</port>
			</output>
		</layer>
		<layer id="1" name="sid_tgt" type="Parameter" version="opset1">
			<data shape="?,256,?" element_type="f32" />
			<output>
				<port id="0" precision="FP32" names="sid_tgt">
					<dim>-1</dim>
					<dim>256</dim>
					<dim>-1</dim>
				</port>
			</output>
		</layer>
		<layer id="0" name="tau" type="Parameter" version="opset1">
			<data shape="" element_type="f32" />
			<output>
				<port id="0" precision="FP32" names="tau" />
			</output>
		</layer>
		<layer id="5" name="Constant_831270" type="Const" version="opset1">
			<data element_type="u8" shape="192, 513, 1" offset="0" size="98496" />
			<output>
				<port id="0" precision="U8">
					<dim>192</dim>
					<dim>513</dim>
					<dim>1</dim>
				</port>
			</output>
		</layer>
		<layer id="6" name="Convert_1232884" type="Convert" version="opset1">
			<data destination_type="f16" />
			<input>
				<port id="0" precision="U8">
					<dim>192</dim>
					<dim>513</dim>
					<dim>1</dim>
				</port>
			</input>
			<output>
				<port id="1" precision="FP16">
					<dim>192</dim>
					<dim>513</dim>
					<dim>1</dim>
				</port>
			</output>
		</layer>
		<layer id="7" name="Constant_831270/zero_point" type="Const" version="opset1">
			<data element_type="u8" shape="192, 1, 1" offset="98496" size="192" />
			<output>
				<port id="0" precision="U8">
					<dim>192</dim>
					<dim>1</dim>
					<dim>1</dim>
				</port>
			</output>
		</layer>
		<layer id="8" name="Convert_1232887" type="Convert" version="opset1">
			<data destination_type="f16" />
			<input>
				<port id="0" precision="U8">
					<dim>192</dim>
					<dim>1</dim>
					<dim>1</dim>
				</port>
			</input>
			<output>
				<port id="1" precision="FP16">
					<dim>192</dim>
					<dim>1</dim>
					<dim>1</dim>
				</port>
			</output>
		</layer>
		<layer id="9" name="Constant_831270/zero_point/subtract" type="Subtract" version="opset1">
			<data auto_broadcast="numpy" />
			<input>
				<port id="0" precision="FP16">
					<dim>192</dim>
					<dim>513</dim>
					<dim>1</dim>
				</port>
				<port id="1" precision="FP16">
					<dim>192</dim>
					<dim>1</dim>
					<dim>1</dim>
				</port>
			</input>
			<output>
				<port id="2" precision="FP16">
					<dim>192</dim>
					<dim>513</dim>
					<dim>1</dim>
				</port>
			</output>
		</layer>
		<layer id="10" name="Constant_831270/scale" type="Const" version="opset1">
			<data element_type="f16" shape="192, 1, 1" offset="98688" size="384" />
			<output>
				<port id="0" precision="FP16">
					<dim>192</dim>
					<dim>1</dim>
					<dim>1</dim>
				</port>
			</output>
		</layer>
		<layer id="11" name="Constant_831270/fq_weights_1" type="Multiply" version="opset1">
			<data auto_broadcast="numpy" />
			<input>
				<port id="0" precision="FP16">
					<dim>192</dim>
					<dim>513</dim>
					<dim>1</dim>
				</port>
				<port id="1" precision="FP16">
					<dim>192</dim>
					<dim>1</dim>
					<dim>1</dim>
				</port>
			</input>
			<output>
				<port id="2" precision="FP16">
					<dim>192</dim>
					<dim>513</dim>
					<dim>1</dim>
				</port>
			</output>
		</layer>
		<layer id="12" name="Constant_831270/fq_weights_1/convert" type="Convert" version="opset1">
			<data destination_type="f32" />
			<input>
				<port id="0" precision="FP16">
					<dim>192</dim>
					<dim>513</dim>
					<dim>1</dim>
				</port>
			</input>
			<output>
				<port id="1" precision="FP32">
					<dim>192</dim>
					<dim>513</dim>
					<dim>1</dim>
				</port>
			</output>
		</layer>
		<layer id="13" name="aten::_convolution/Convolution" type="Convolution" version="opset1">
			<data strides="1" dilations="1" pads_begin="0" pads_end="0" auto_pad="explicit" />
			<input>
				<port id="0" precision="FP32">
					<dim>-1</dim>
					<dim>513</dim>
					<dim>-1</dim>
				</port>
				<port id="1" precision="FP32">
					<dim>192</dim>
					<dim>513</dim>
					<dim>1</dim>
				</port>
			</input>
			<output>
				<port id="2" precision="FP32">
					<dim>-1</dim>
					<dim>192</dim>
					<dim>-1</dim>
				</port>
			</output>
		</layer>
		<layer id="14" name="aten::_convolution/Reshape" type="Const" version="opset1">
			<data element_type="f32" shape="1, 192, 1" offset="99072" size="768" />
			<output>
				<port id="0" precision="FP32">
					<dim>1</dim>
					<dim>192</dim>
					<dim>1</dim>
				</port>
			</output>
		</layer>
		<layer id="15" name="aten::_convolution/Add" type="Add" version="opset1">
			<data auto_broadcast="numpy" />
			<input>
				<port id="0" precision="FP32">
					<dim>-1</dim>
					<dim>192</dim>
					<dim>-1</dim>
				</port>
				<port id="1" precision="FP32">
					<dim>1</dim>
					<dim>192</dim>
					<dim>1</dim>
				</port>
			</input>
			<output>
				<port id="2" precision="FP32" names="49">
					<dim>-1</dim>
					<dim>192</dim>
					<dim>-1</dim>
				</port>
			</output>
		</layer>
		<layer id="16" name="aten::arange/Constant" type="Const" version="opset1">
			<data element_type="i32" shape="" offset="99840" size="4" />
			<output>
				<port id="0" precision="I32" />
			</output>
		</layer>
		<layer id="17" name="ShapeOf_919168" type="ShapeOf" version="opset3">
			<data output_type="i64" />
			<input>
				<port id="0" precision="FP32">
					<dim>-1</dim>
					<dim>513</dim>
					<dim>-1</dim>
				</port>
			</input>
			<output>
				<port id="1" precision="I64">
					<dim>3</dim>
				</port>
			</output>
		</layer>
		<layer id="18" name="Constant_919169" type="Const" version="opset1">
			<data element_type="i64" shape="" offset="99844" size="8" />
			<output>
				<port id="0" precision="I64" />
			</output>
		</layer>
		<layer id="19" name="Constant_919170" type="Const" version="opset1">
			<data element_type="i64" shape="" offset="99852" size="8" />
			<output>
				<port id="0" precision="I64" />
			</output>
		</layer>
		<layer id="20" name="Gather_919171" type="Gather" version="opset8">
			<data batch_dims="0" />
			<input>
				<port id="0" precision="I64">
					<dim>3</dim>
				</port>
				<port id="1" precision="I64" />
				<port id="2" precision="I64" />
			</input>
			<output>
				<port id="3" precision="I64" names="13" />
			</output>
		</layer>
		<layer id="21" name="aten::arange/Constant_1" type="Const" version="opset1">
			<data element_type="i32" shape="" offset="99860" size="4" />
			<output>
				<port id="0" precision="I32" />
			</output>
		</layer>
		<layer id="22" name="aten::arange/Range" type="Range" version="opset4">
			<data output_type="i64" />
			<input>
				<port id="0" precision="I32" />
				<port id="1" precision="I64" />
				<port id="2" precision="I32" />
			</input>
			<output>
				<port id="3" precision="I64" names="20,x.1">
					<dim>-1</dim>
				</port>
			</output>
		</layer>
		<layer id="23" name="21" type="Const" version="opset1">
			<data element_type="i64" shape="" offset="99852" size="8" />
			<output>
				<port id="0" precision="I64" names="21" />
			</output>
		</layer>
		<layer id="24" name="aten::unsqueeze/Unsqueeze" type="Unsqueeze" version="opset1">
			<input>
				<port id="0" precision="I64">
					<dim>-1</dim>
				</port>
				<port id="1" precision="I64" />
			</input>
			<output>
				<port id="2" precision="I64" names="22">
					<dim>1</dim>
					<dim>-1</dim>
				</port>
			</output>
		</layer>
		<layer id="25" name="23" type="Const" version="opset1">
			<data element_type="i64" shape="" offset="99864" size="8" />
			<output>
				<port id="0" precision="I64" names="23" />
			</output>
		</layer>
		<layer id="26" name="aten::unsqueeze/Unsqueeze_1" type="Unsqueeze" version="opset1">
			<input>
				<port id="0" precision="I64">
					<dim>-1</dim>
				</port>
				<port id="1" precision="I64" />
			</input>
			<output>
				<port id="2" precision="I64" names="24">
					<dim>-1</dim>
					<dim>1</dim>
				</port>
			</output>
		</layer>
		<layer id="27" name="aten::lt/Less" type="Less" version="opset1">
			<data auto_broadcast="numpy" />
			<input>
				<port id="0" precision="I64">
					<dim>1</dim>
					<dim>-1</dim>
				</port>
				<port id="1" precision="I64">
					<dim>-1</dim>
					<dim>1</dim>
				</port>
			</input>
			<output>
				<port id="2" precision="BOOL" names="25">
					<dim>-1</dim>
					<dim>-1</dim>
				</port>
			</output>
		</layer>
		<layer id="28" name="26" type="Const" version="opset1">
			<data element_type="i64" shape="" offset="99864" size="8" />
			<output>
				<port id="0" precision="I64" names="26" />
			</output>
		</layer>
		<layer id="29" name="aten::unsqueeze/Unsqueeze_2" type="Unsqueeze" version="opset1">
			<input>
				<port id="0" precision="BOOL">
					<dim>-1</dim>
					<dim>-1</dim>
				</port>
				<port id="1" precision="I64" />
			</input>
			<output>
				<port id="2" precision="BOOL" names="27">
					<dim>-1</dim>
					<dim>1</dim>
					<dim>-1</dim>
				</port>
			</output>
		</layer>
		<layer id="30" name="aten::to/Convert" type="Convert" version="opset1">
			<data destination_type="f32" />
			<input>
				<port id="0" precision="BOOL">
					<dim>-1</dim>
					<dim>1</dim>
					<dim>-1</dim>
				</port>
			</input>
			<output>
				<port id="1" precision="FP32" names="x_mask">
					<dim>-1</dim>
					<dim>1</dim>
					<dim>-1</dim>
				</port>
			</output>
		</layer>
		<layer id="31" name="aten::mul/Multiply" type="Multiply" version="opset1">
			<data auto_broadcast="numpy" />
			<input>
				<port id="0" precision="FP32">
					<dim>-1</dim>
					<dim>192</dim>
					<dim>-1</dim>
				</port>
				<port id="1" precision="FP32">
					<dim>-1</dim>
					<dim>1</dim>
					<dim>-1</dim>
				</port>
			</input>
			<output>
				<port id="2" precision="FP32" names="50,x.3">
					<dim>-1</dim>
					<dim>192</dim>
					<dim>-1</dim>
				</port>
			</output>
		</layer>
		<layer id="32" name="aten::_weight_norm/Multiply" type="Const" version="opset1">
			<data element_type="u8" shape="384, 192, 5" offset="99872" size="368640" />
			<output>
				<port id="0" precision="U8">
					<dim>384</dim>
					<dim>192</dim>
					<dim>5</dim>
				</port>
			</output>
		</layer>
		<layer id="33" name="Convert_1016644" type="Convert" version="opset1">
			<data destination_type="f16" />
			<input>
				<port id="0" precision="U8">
					<dim>384</dim>
					<dim>192</dim>
					<dim>5</dim>
				</port>
			</input>
			<output>
				<port id="1" precision="FP16">
					<dim>384</dim>
					<dim>192</dim>
					<dim>5</dim>
				</port>
			</output>
		</layer>
		<layer id="34" name="aten::_weight_norm/Multiply/zero_point" type="Const" version="opset1">
			<data element_type="u8" shape="384, 1, 1" offset="468512" size="384" />
			<output>
				<port id="0" precision="U8">
					<dim>384</dim>
					<dim>1</dim>
					<dim>1</dim>
				</port>
			</output>
		</layer>
		<layer id="35" name="Convert_1016647" type="Convert" version="opset1">
			<data destination_type="f16" />
			<input>
				<port id="0" precision="U8">
					<dim>384</dim>
					<dim>1</dim>
					<dim>1</dim>
				</port>
			</input>
			<output>
				<port id="1" precision="FP16">
					<dim>384</dim>
					<dim>1</dim>
					<dim>1</dim>
				</port>
			</output>
		</layer>
		<layer id="36" name="aten::_weight_norm/Multiply/zero_point/subtract" type="Subtract" version="opset1">
			<data auto_broadcast="numpy" />
			<input>
				<port id="0" precision="FP16">
					<dim>384</dim>
					<dim>192</dim>
					<dim>5</dim>
				</port>
				<port id="1" precision="FP16">
					<dim>384</dim>
					<dim>1</dim>
					<dim>1</dim>
				</port>
			</input>
			<output>
				<port id="2" precision="FP16">
					<dim>384</dim>
					<dim>192</dim>
					<dim>5</dim>
				</port>
			</output>
		</layer>
		<layer id="37" name="aten::_weight_norm/Multiply/scale" type="Const" version="opset1">
			<data element_type="f16" shape="384, 1, 1" offset="468896" size="768" />
			<output>
				<port id="0" precision="FP16">
					<dim>384</dim>
					<dim>1</dim>
					<dim>1</dim>
				</port>
			</output>
		</layer>
		<layer id="38" name="aten::_weight_norm/Multiply/fq_weights_1" type="Multiply" version="opset1">
			<data auto_broadcast="numpy" />
			<input>
				<port id="0" precision="FP16">
					<dim>384</dim>
					<dim>192</dim>
					<dim>5</dim>
				</port>
				<port id="1" precision="FP16">
					<dim>384</dim>
					<dim>1</dim>
					<dim>1</dim>
				</port>
			</input>
			<output>
				<port id="2" precision="FP16">
					<dim>384</dim>
					<dim>192</dim>
					<dim>5</dim>
				</port>
			</output>
		</layer>
		<layer id="39" name="aten::_weight_norm/Multiply/fq_weights_1/convert" type="Convert" version="opset1">
			<data destination_type="f32" />
			<input>
				<port id="0" precision="FP16">
					<dim>384</dim>
					<dim>192</dim>
					<dim>5</dim>
				</port>
			</input>
			<output>
				<port id="1" precision="FP32">
					<dim>384</dim>
					<dim>192</dim>
					<dim>5</dim>
				</port>
			</output>
		</layer>
		<layer id="40" name="aten::_convolution/Convolution_1" type="Convolution" version="opset1">
			<data strides="1" dilations="1" pads_begin="2" pads_end="2" auto_pad="explicit" />
			<input>
				<port id="0" precision="FP32">
					<dim>-1</dim>
					<dim>192</dim>
					<dim>-1</dim>
				</port>
				<port id="1" precision="FP32">
					<dim>384</dim>
					<dim>192</dim>
					<dim>5</dim>
				</port>
			</input>
			<output>
				<port id="2" precision="FP32">
					<dim>-1</dim>
					<dim>384</dim>
					<dim>-1</dim>
				</port>
			</output>
		</layer>
		<layer id="41" name="aten::_convolution/Reshape_1" type="Const" version="opset1">
			<data element_type="f32" shape="1, 384, 1" offset="469664" size="1536" />
			<output>
				<port id="0" precision="FP32">
					<dim>1</dim>
					<dim>384</dim>
					<dim>1</dim>
				</port>
			</output>
		</layer>
		<layer id="42" name="aten::_convolution/Add_1" type="Add" version="opset1">
			<data auto_broadcast="numpy" />
			<input>
				<port id="0" precision="FP32">
					<dim>-1</dim>
					<dim>384</dim>
					<dim>-1</dim>
				</port>
				<port id="1" precision="FP32">
					<dim>1</dim>
					<dim>384</dim>
					<dim>1</dim>
				</port>
			</input>
			<output>
				<port id="2" precision="FP32" names="103,x_in.1">
					<dim>-1</dim>
					<dim>384</dim>
					<dim>-1</dim>
				</port>
			</output>
		</layer>
		<layer id="43" name="aten::zeros_like/Constant_1" type="Const" version="opset1">
			<data element_type="f32" shape="" offset="99840" size="4" />
			<output>
				<port id="0" precision="FP32" />
			</output>
		</layer>
		<layer id="44" name="aten::zeros_like/ShapeOf_1" type="ShapeOf" version="opset3">
			<data output_type="i32" />
			<input>
				<port id="0" precision="FP32">
					<dim>-1</dim>
					<dim>256</dim>
					<dim>-1</dim>
				</port>
			</input>
			<output>
				<port id="1" precision="I32">
					<dim>3</dim>
				</port>
			</output>
		</layer>
		<layer id="45" name="aten::zeros_like/Broadcast_1" type="Broadcast" version="opset3">
			<data mode="numpy" />
			<input>
				<port id="0" precision="FP32" />
				<port id="1" precision="I32">
					<dim>3</dim>
				</port>
			</input>
			<output>
				<port id="2" precision="FP32" names="11">
					<dim>-1</dim>
					<dim>256</dim>
					<dim>-1</dim>
				</port>
			</output>
		</layer>
		<layer id="46" name="aten::_weight_norm/Multiply_1" type="Const" version="opset1">
			<data element_type="u8" shape="6144, 256, 1" offset="471200" size="1572864" />
			<output>
				<port id="0" precision="U8">
					<dim>6144</dim>
					<dim>256</dim>
					<dim>1</dim>
				</port>
			</output>
		</layer>
		<layer id="47" name="Convert_936084" type="Convert" version="opset1">
			<data destination_type="f16" />
			<input>
				<port id="0" precision="U8">
					<dim>6144</dim>
					<dim>256</dim>
					<dim>1</dim>
				</port>
			</input>
			<output>
				<port id="1" precision="FP16">
					<dim>6144</dim>
					<dim>256</dim>
					<dim>1</dim>
				</port>
			</output>
		</layer>
		<layer id="48" name="aten::_weight_norm/Multiply_1/zero_point" type="Const" version="opset1">
			<data element_type="u8" shape="6144, 1, 1" offset="2044064" size="6144" />
			<output>
				<port id="0" precision="U8">
					<dim>6144</dim>
					<dim>1</dim>
					<dim>1</dim>
				</port>
			</output>
		</layer>
		<layer id="49" name="Convert_936087" type="Convert" version="opset1">
			<data destination_type="f16" />
			<input>
				<port id="0" precision="U8">
					<dim>6144</dim>
					<dim>1</dim>
					<dim>1</dim>
				</port>
			</input>
			<output>
				<port id="1" precision="FP16">
					<dim>6144</dim>
					<dim>1</dim>
					<dim>1</dim>
				</port>
			</output>
		</layer>
		<layer id="50" name="aten::_weight_norm/Multiply_1/zero_point/subtract" type="Subtract" version="opset1">
			<data auto_broadcast="numpy" />
			<input>
				<port id="0" precision="FP16">
					<dim>6144</dim>
					<dim>256</dim>
					<dim>1</dim>
				</port>
				<port id="1" precision="FP16">
					<dim>6144</dim>
					<dim>1</dim>
					<dim>1</dim>
				</port>
			</input>
			<output>
				<port id="2" precision="FP16">
					<dim>6144</dim>
					<dim>256</dim>
					<dim>1</dim>
				</port>
			</output>
		</layer>
		<layer id="51" name="aten::_weight_norm/Multiply_1/scale" type="Const" version="opset1">
			<data element_type="f16" shape="6144, 1, 1" offset="2050208" size="12288" />
			<output>
				<port id="0" precision="FP16">
					<dim>6144</dim>
					<dim>1</dim>
					<dim>1</dim>
				</port>
			</output>
		</layer>
		<layer id="52" name="aten::_weight_norm/Multiply_1/fq_weights_1" type="Multiply" version="opset1">
			<data auto_broadcast="numpy" />
			<input>
				<port id="0" precision="FP16">
					<dim>6144</dim>
					<dim>256</dim>
					<dim>1</dim>
				</port>
				<port id="1" precision="FP16">
					<dim>6144</dim>
					<dim>1</dim>
					<dim>1</dim>
				</port>
			</input>
			<output>
				<port id="2" precision="FP16">
					<dim>6144</dim>
					<dim>256</dim>
					<dim>1</dim>
				</port>
			</output>
		</layer>
		<layer id="53" name="aten::_weight_norm/Multiply_1/fq_weights_1/convert" type="Convert" version="opset1">
			<data destination_type="f32" />
			<input>
				<port id="0" precision="FP16">
					<dim>6144</dim>
					<dim>256</dim>
					<dim>1</dim>
				</port>
			</input>
			<output>
				<port id="1" precision="FP32">
					<dim>6144</dim>
					<dim>256</dim>
					<dim>1</dim>
				</port>
			</output>
		</layer>
		<layer id="54" name="aten::_convolution/Convolution_2" type="Convolution" version="opset1">
			<data strides="1" dilations="1" pads_begin="0" pads_end="0" auto_pad="explicit" />
			<input>
				<port id="0" precision="FP32">
					<dim>-1</dim>
					<dim>256</dim>
					<dim>-1</dim>
				</port>
				<port id="1" precision="FP32">
					<dim>6144</dim>
					<dim>256</dim>
					<dim>1</dim>
				</port>
			</input>
			<output>
				<port id="2" precision="FP32">
					<dim>-1</dim>
					<dim>6144</dim>
					<dim>-1</dim>
				</port>
			</output>
		</layer>
		<layer id="55" name="aten::_convolution/Reshape_2" type="Const" version="opset1">
			<data element_type="f32" shape="1, 6144, 1" offset="2062496" size="24576" />
			<output>
				<port id="0" precision="FP32">
					<dim>1</dim>
					<dim>6144</dim>
					<dim>1</dim>
				</port>
			</output>
		</layer>
		<layer id="56" name="aten::_convolution/Add_2" type="Add" version="opset1">
			<data auto_broadcast="numpy" />
			<input>
				<port id="0" precision="FP32">
					<dim>-1</dim>
					<dim>6144</dim>
					<dim>-1</dim>
				</port>
				<port id="1" precision="FP32">
					<dim>1</dim>
					<dim>6144</dim>
					<dim>1</dim>
				</port>
			</input>
			<output>
				<port id="2" precision="FP32" names="1058,108,1153,1248,1343,1438,1533,203,298,393,488,583,678,773,83,868,963,g.1">
					<dim>-1</dim>
					<dim>6144</dim>
					<dim>-1</dim>
				</port>
			</output>
		</layer>
		<layer id="57" name="Constant_831537" type="Const" version="opset1">
			<data element_type="i64" shape="1" offset="99852" size="8" />
			<output>
				<port id="0" precision="I64">
					<dim>1</dim>
				</port>
			</output>
		</layer>
		<layer id="58" name="Constant_831539" type="Const" version="opset1">
			<data element_type="i64" shape="1" offset="2087072" size="8" />
			<output>
				<port id="0" precision="I64">
					<dim>1</dim>
				</port>
			</output>
		</layer>
		<layer id="59" name="Constant_831541" type="Const" version="opset1">
			<data element_type="i64" shape="1" offset="99864" size="8" />
			<output>
				<port id="0" precision="I64">
					<dim>1</dim>
				</port>
			</output>
		</layer>
		<layer id="60" name="Constant_831535" type="Const" version="opset1">
			<data element_type="i64" shape="1" offset="99864" size="8" />
			<output>
				<port id="0" precision="I64">
					<dim>1</dim>
				</port>
			</output>
		</layer>
		<layer id="61" name="aten::slice/Slice_1" type="Slice" version="opset8">
			<input>
				<port id="0" precision="FP32">
					<dim>-1</dim>
					<dim>6144</dim>
					<dim>-1</dim>
				</port>
				<port id="1" precision="I64">
					<dim>1</dim>
				</port>
				<port id="2" precision="I64">
					<dim>1</dim>
				</port>
				<port id="3" precision="I64">
					<dim>1</dim>
				</port>
				<port id="4" precision="I64">
					<dim>1</dim>
				</port>
			</input>
			<output>
				<port id="5" precision="FP32" names="113,118,g_l.1">
					<dim>-1</dim>
					<dim>384</dim>
					<dim>-1</dim>
				</port>
			</output>
		</layer>
		<layer id="62" name="aten::add/Add" type="Add" version="opset1">
			<data auto_broadcast="numpy" />
			<input>
				<port id="0" precision="FP32">
					<dim>-1</dim>
					<dim>384</dim>
					<dim>-1</dim>
				</port>
				<port id="1" precision="FP32">
					<dim>-1</dim>
					<dim>384</dim>
					<dim>-1</dim>
				</port>
			</input>
			<output>
				<port id="2" precision="FP32" names="6853,6854,6859,in_act.2">
					<dim>-1</dim>
					<dim>384</dim>
					<dim>-1</dim>
				</port>
			</output>
		</layer>
		<layer id="63" name="aten::slice/Constant_2" type="Const" version="opset1">
			<data element_type="i32" shape="1" offset="99840" size="4" />
			<output>
				<port id="0" precision="I32">
					<dim>1</dim>
				</port>
			</output>
		</layer>
		<layer id="64" name="Constant_831591" type="Const" version="opset1">
			<data element_type="i64" shape="1" offset="2087080" size="8" />
			<output>
				<port id="0" precision="I64">
					<dim>1</dim>
				</port>
			</output>
		</layer>
		<layer id="65" name="Constant_831593" type="Const" version="opset1">
			<data element_type="i64" shape="1" offset="99864" size="8" />
			<output>
				<port id="0" precision="I64">
					<dim>1</dim>
				</port>
			</output>
		</layer>
		<layer id="66" name="Constant_831580" type="Const" version="opset1">
			<data element_type="i64" shape="1" offset="99864" size="8" />
			<output>
				<port id="0" precision="I64">
					<dim>1</dim>
				</port>
			</output>
		</layer>
		<layer id="67" name="aten::slice/Slice_4" type="Slice" version="opset8">
			<input>
				<port id="0" precision="FP32">
					<dim>-1</dim>
					<dim>384</dim>
					<dim>-1</dim>
				</port>
				<port id="1" precision="I32">
					<dim>1</dim>
				</port>
				<port id="2" precision="I64">
					<dim>1</dim>
				</port>
				<port id="3" precision="I64">
					<dim>1</dim>
				</port>
				<port id="4" precision="I64">
					<dim>1</dim>
				</port>
			</input>
			<output>
				<port id="5" precision="FP32" names="6856,6857">
					<dim>-1</dim>
					<dim>192</dim>
					<dim>-1</dim>
				</port>
			</output>
		</layer>
		<layer id="68" name="aten::tanh/Tanh" type="Tanh" version="opset1">
			<input>
				<port id="0" precision="FP32">
					<dim>-1</dim>
					<dim>192</dim>
					<dim>-1</dim>
				</port>
			</input>
			<output>
				<port id="1" precision="FP32" names="6858,t_act.2">
					<dim>-1</dim>
					<dim>192</dim>
					<dim>-1</dim>
				</port>
			</output>
		</layer>
		<layer id="69" name="Constant_831631" type="Const" version="opset1">
			<data element_type="i64" shape="1" offset="2087080" size="8" />
			<output>
				<port id="0" precision="I64">
					<dim>1</dim>
				</port>
			</output>
		</layer>
		<layer id="70" name="aten::slice/Constant_7" type="Const" version="opset1">
			<data element_type="i32" shape="1" offset="2087088" size="4" />
			<output>
				<port id="0" precision="I32">
					<dim>1</dim>
				</port>
			</output>
		</layer>
		<layer id="71" name="Constant_831634" type="Const" version="opset1">
			<data element_type="i64" shape="1" offset="99864" size="8" />
			<output>
				<port id="0" precision="I64">
					<dim>1</dim>
				</port>
			</output>
		</layer>
		<layer id="72" name="Constant_831621" type="Const" version="opset1">
			<data element_type="i64" shape="1" offset="99864" size="8" />
			<output>
				<port id="0" precision="I64">
					<dim>1</dim>
				</port>
			</output>
		</layer>
		<layer id="73" name="aten::slice/Slice_7" type="Slice" version="opset8">
			<input>
				<port id="0" precision="FP32">
					<dim>-1</dim>
					<dim>384</dim>
					<dim>-1</dim>
				</port>
				<port id="1" precision="I64">
					<dim>1</dim>
				</port>
				<port id="2" precision="I32">
					<dim>1</dim>
				</port>
				<port id="3" precision="I64">
					<dim>1</dim>
				</port>
				<port id="4" precision="I64">
					<dim>1</dim>
				</port>
			</input>
			<output>
				<port id="5" precision="FP32" names="6861,6862">
					<dim>-1</dim>
					<dim>192</dim>
					<dim>-1</dim>
				</port>
			</output>
		</layer>
		<layer id="74" name="aten::sigmoid/Sigmoid" type="Sigmoid" version="opset1">
			<input>
				<port id="0" precision="FP32">
					<dim>-1</dim>
					<dim>192</dim>
					<dim>-1</dim>
				</port>
			</input>
			<output>
				<port id="1" precision="FP32" names="6863,s_act.2">
					<dim>-1</dim>
					<dim>192</dim>
					<dim>-1</dim>
				</port>
			</output>
		</layer>
		<layer id="75" name="aten::mul/Multiply_1" type="Multiply" version="opset1">
			<data auto_broadcast="numpy" />
			<input>
				<port id="0" precision="FP32">
					<dim>-1</dim>
					<dim>192</dim>
					<dim>-1</dim>
				</port>
				<port id="1" precision="FP32">
					<dim>-1</dim>
					<dim>192</dim>
					<dim>-1</dim>
				</port>
			</input>
			<output>
				<port id="2" precision="FP32" names="6864,input.1">
					<dim>-1</dim>
					<dim>192</dim>
					<dim>-1</dim>
				</port>
			</output>
		</layer>
		<layer id="76" name="aten::_weight_norm/Multiply_2" type="Const" version="opset1">
			<data element_type="u8" shape="384, 192, 1" offset="2087092" size="73728" />
			<output>
				<port id="0" precision="U8">
					<dim>384</dim>
					<dim>192</dim>
					<dim>1</dim>
				</port>
			</output>
		</layer>
		<layer id="77" name="Convert_1237124" type="Convert" version="opset1">
			<data destination_type="f16" />
			<input>
				<port id="0" precision="U8">
					<dim>384</dim>
					<dim>192</dim>
					<dim>1</dim>
				</port>
			</input>
			<output>
				<port id="1" precision="FP16">
					<dim>384</dim>
					<dim>192</dim>
					<dim>1</dim>
				</port>
			</output>
		</layer>
		<layer id="78" name="aten::_weight_norm/Multiply_2/zero_point" type="Const" version="opset1">
			<data element_type="u8" shape="384, 1, 1" offset="2160820" size="384" />
			<output>
				<port id="0" precision="U8">
					<dim>384</dim>
					<dim>1</dim>
					<dim>1</dim>
				</port>
			</output>
		</layer>
		<layer id="79" name="Convert_1237127" type="Convert" version="opset1">
			<data destination_type="f16" />
			<input>
				<port id="0" precision="U8">
					<dim>384</dim>
					<dim>1</dim>
					<dim>1</dim>
				</port>
			</input>
			<output>
				<port id="1" precision="FP16">
					<dim>384</dim>
					<dim>1</dim>
					<dim>1</dim>
				</port>
			</output>
		</layer>
		<layer id="80" name="aten::_weight_norm/Multiply_2/zero_point/subtract" type="Subtract" version="opset1">
			<data auto_broadcast="numpy" />
			<input>
				<port id="0" precision="FP16">
					<dim>384</dim>
					<dim>192</dim>
					<dim>1</dim>
				</port>
				<port id="1" precision="FP16">
					<dim>384</dim>
					<dim>1</dim>
					<dim>1</dim>
				</port>
			</input>
			<output>
				<port id="2" precision="FP16">
					<dim>384</dim>
					<dim>192</dim>
					<dim>1</dim>
				</port>
			</output>
		</layer>
		<layer id="81" name="aten::_weight_norm/Multiply_2/scale" type="Const" version="opset1">
			<data element_type="f16" shape="384, 1, 1" offset="2161204" size="768" />
			<output>
				<port id="0" precision="FP16">
					<dim>384</dim>
					<dim>1</dim>
					<dim>1</dim>
				</port>
			</output>
		</layer>
		<layer id="82" name="aten::_weight_norm/Multiply_2/fq_weights_1" type="Multiply" version="opset1">
			<data auto_broadcast="numpy" />
			<input>
				<port id="0" precision="FP16">
					<dim>384</dim>
					<dim>192</dim>
					<dim>1</dim>
				</port>
				<port id="1" precision="FP16">
					<dim>384</dim>
					<dim>1</dim>
					<dim>1</dim>
				</port>
			</input>
			<output>
				<port id="2" precision="FP16">
					<dim>384</dim>
					<dim>192</dim>
					<dim>1</dim>
				</port>
			</output>
		</layer>
		<layer id="83" name="aten::_weight_norm/Multiply_2/fq_weights_1/convert" type="Convert" version="opset1">
			<data destination_type="f32" />
			<input>
				<port id="0" precision="FP16">
					<dim>384</dim>
					<dim>192</dim>
					<dim>1</dim>
				</port>
			</input>
			<output>
				<port id="1" precision="FP32">
					<dim>384</dim>
					<dim>192</dim>
					<dim>1</dim>
				</port>
			</output>
		</layer>
		<layer id="84" name="aten::_convolution/Convolution_3" type="Convolution" version="opset1">
			<data strides="1" dilations="1" pads_begin="0" pads_end="0" auto_pad="explicit" />
			<input>
				<port id="0" precision="FP32">
					<dim>-1</dim>
					<dim>192</dim>
					<dim>-1</dim>
				</port>
				<port id="1" precision="FP32">
					<dim>384</dim>
					<dim>192</dim>
					<dim>1</dim>
				</port>
			</input>
			<output>
				<port id="2" precision="FP32">
					<dim>-1</dim>
					<dim>384</dim>
					<dim>-1</dim>
				</port>
			</output>
		</layer>
		<layer id="85" name="aten::_convolution/Reshape_3" type="Const" version="opset1">
			<data element_type="f32" shape="1, 384, 1" offset="2161972" size="1536" />
			<output>
				<port id="0" precision="FP32">
					<dim>1</dim>
					<dim>384</dim>
					<dim>1</dim>
				</port>
			</output>
		</layer>
		<layer id="86" name="aten::_convolution/Add_3" type="Add" version="opset1">
			<data auto_broadcast="numpy" />
			<input>
				<port id="0" precision="FP32">
					<dim>-1</dim>
					<dim>384</dim>
					<dim>-1</dim>
				</port>
				<port id="1" precision="FP32">
					<dim>1</dim>
					<dim>384</dim>
					<dim>1</dim>
				</port>
			</input>
			<output>
				<port id="2" precision="FP32" names="143,148,166,res_skip_acts.1">
					<dim>-1</dim>
					<dim>384</dim>
					<dim>-1</dim>
				</port>
			</output>
		</layer>
		<layer id="87" name="Constant_831818" type="Const" version="opset1">
			<data element_type="i64" shape="1" offset="2087080" size="8" />
			<output>
				<port id="0" precision="I64">
					<dim>1</dim>
				</port>
			</output>
		</layer>
		<layer id="88" name="Constant_831820" type="Const" version="opset1">
			<data element_type="i64" shape="1" offset="2163508" size="8" />
			<output>
				<port id="0" precision="I64">
					<dim>1</dim>
				</port>
			</output>
		</layer>
		<layer id="89" name="Constant_831822" type="Const" version="opset1">
			<data element_type="i64" shape="1" offset="99864" size="8" />
			<output>
				<port id="0" precision="I64">
					<dim>1</dim>
				</port>
			</output>
		</layer>
		<layer id="90" name="Constant_831816" type="Const" version="opset1">
			<data element_type="i64" shape="1" offset="99864" size="8" />
			<output>
				<port id="0" precision="I64">
					<dim>1</dim>
				</port>
			</output>
		</layer>
		<layer id="91" name="aten::slice/Slice_10" type="Slice" version="opset8">
			<input>
				<port id="0" precision="FP32">
					<dim>-1</dim>
					<dim>384</dim>
					<dim>-1</dim>
				</port>
				<port id="1" precision="I64">
					<dim>1</dim>
				</port>
				<port id="2" precision="I64">
					<dim>1</dim>
				</port>
				<port id="3" precision="I64">
					<dim>1</dim>
				</port>
				<port id="4" precision="I64">
					<dim>1</dim>
				</port>
			</input>
			<output>
				<port id="5" precision="FP32" names="171,176">
					<dim>-1</dim>
					<dim>192</dim>
					<dim>-1</dim>
				</port>
			</output>
		</layer>
		<layer id="92" name="Constant_831765" type="Const" version="opset1">
			<data element_type="i64" shape="1" offset="99852" size="8" />
			<output>
				<port id="0" precision="I64">
					<dim>1</dim>
				</port>
			</output>
		</layer>
		<layer id="93" name="Constant_831767" type="Const" version="opset1">
			<data element_type="i64" shape="1" offset="2087080" size="8" />
			<output>
				<port id="0" precision="I64">
					<dim>1</dim>
				</port>
			</output>
		</layer>
		<layer id="94" name="Constant_831769" type="Const" version="opset1">
			<data element_type="i64" shape="1" offset="99864" size="8" />
			<output>
				<port id="0" precision="I64">
					<dim>1</dim>
				</port>
			</output>
		</layer>
		<layer id="95" name="Constant_831763" type="Const" version="opset1">
			<data element_type="i64" shape="1" offset="99864" size="8" />
			<output>
				<port id="0" precision="I64">
					<dim>1</dim>
				</port>
			</output>
		</layer>
		<layer id="96" name="aten::slice/Slice_13" type="Slice" version="opset8">
			<input>
				<port id="0" precision="FP32">
					<dim>-1</dim>
					<dim>384</dim>
					<dim>-1</dim>
				</port>
				<port id="1" precision="I64">
					<dim>1</dim>
				</port>
				<port id="2" precision="I64">
					<dim>1</dim>
				</port>
				<port id="3" precision="I64">
					<dim>1</dim>
				</port>
				<port id="4" precision="I64">
					<dim>1</dim>
				</port>
			</input>
			<output>
				<port id="5" precision="FP32" names="153,158,res_acts.1">
					<dim>-1</dim>
					<dim>192</dim>
					<dim>-1</dim>
				</port>
			</output>
		</layer>
		<layer id="97" name="aten::add/Add_2" type="Add" version="opset1">
			<data auto_broadcast="numpy" />
			<input>
				<port id="0" precision="FP32">
					<dim>-1</dim>
					<dim>192</dim>
					<dim>-1</dim>
				</port>
				<port id="1" precision="FP32">
					<dim>-1</dim>
					<dim>192</dim>
					<dim>-1</dim>
				</port>
			</input>
			<output>
				<port id="2" precision="FP32" names="160">
					<dim>-1</dim>
					<dim>192</dim>
					<dim>-1</dim>
				</port>
			</output>
		</layer>
		<layer id="98" name="aten::mul/Multiply_2" type="Multiply" version="opset1">
			<data auto_broadcast="numpy" />
			<input>
				<port id="0" precision="FP32">
					<dim>-1</dim>
					<dim>192</dim>
					<dim>-1</dim>
				</port>
				<port id="1" precision="FP32">
					<dim>-1</dim>
					<dim>1</dim>
					<dim>-1</dim>
				</port>
			</input>
			<output>
				<port id="2" precision="FP32" names="161,x.5">
					<dim>-1</dim>
					<dim>192</dim>
					<dim>-1</dim>
				</port>
			</output>
		</layer>
		<layer id="99" name="aten::_weight_norm/Multiply_3" type="Const" version="opset1">
			<data element_type="u8" shape="384, 192, 5" offset="2163516" size="368640" />
			<output>
				<port id="0" precision="U8">
					<dim>384</dim>
					<dim>192</dim>
					<dim>5</dim>
				</port>
			</output>
		</layer>
		<layer id="100" name="Convert_1020884" type="Convert" version="opset1">
			<data destination_type="f16" />
			<input>
				<port id="0" precision="U8">
					<dim>384</dim>
					<dim>192</dim>
					<dim>5</dim>
				</port>
			</input>
			<output>
				<port id="1" precision="FP16">
					<dim>384</dim>
					<dim>192</dim>
					<dim>5</dim>
				</port>
			</output>
		</layer>
		<layer id="101" name="aten::_weight_norm/Multiply_3/zero_point" type="Const" version="opset1">
			<data element_type="u8" shape="384, 1, 1" offset="2532156" size="384" />
			<output>
				<port id="0" precision="U8">
					<dim>384</dim>
					<dim>1</dim>
					<dim>1</dim>
				</port>
			</output>
		</layer>
		<layer id="102" name="Convert_1020887" type="Convert" version="opset1">
			<data destination_type="f16" />
			<input>
				<port id="0" precision="U8">
					<dim>384</dim>
					<dim>1</dim>
					<dim>1</dim>
				</port>
			</input>
			<output>
				<port id="1" precision="FP16">
					<dim>384</dim>
					<dim>1</dim>
					<dim>1</dim>
				</port>
			</output>
		</layer>
		<layer id="103" name="aten::_weight_norm/Multiply_3/zero_point/subtract" type="Subtract" version="opset1">
			<data auto_broadcast="numpy" />
			<input>
				<port id="0" precision="FP16">
					<dim>384</dim>
					<dim>192</dim>
					<dim>5</dim>
				</port>
				<port id="1" precision="FP16">
					<dim>384</dim>
					<dim>1</dim>
					<dim>1</dim>
				</port>
			</input>
			<output>
				<port id="2" precision="FP16">
					<dim>384</dim>
					<dim>192</dim>
					<dim>5</dim>
				</port>
			</output>
		</layer>
		<layer id="104" name="aten::_weight_norm/Multiply_3/scale" type="Const" version="opset1">
			<data element_type="f16" shape="384, 1, 1" offset="2532540" size="768" />
			<output>
				<port id="0" precision="FP16">
					<dim>384</dim>
					<dim>1</dim>
					<dim>1</dim>
				</port>
			</output>
		</layer>
		<layer id="105" name="aten::_weight_norm/Multiply_3/fq_weights_1" type="Multiply" version="opset1">
			<data auto_broadcast="numpy" />
			<input>
				<port id="0" precision="FP16">
					<dim>384</dim>
					<dim>192</dim>
					<dim>5</dim>
				</port>
				<port id="1" precision="FP16">
					<dim>384</dim>
					<dim>1</dim>
					<dim>1</dim>
				</port>
			</input>
			<output>
				<port id="2" precision="FP16">
					<dim>384</dim>
					<dim>192</dim>
					<dim>5</dim>
				</port>
			</output>
		</layer>
		<layer id="106" name="aten::_weight_norm/Multiply_3/fq_weights_1/convert" type="Convert" version="opset1">
			<data destination_type="f32" />
			<input>
				<port id="0" precision="FP16">
					<dim>384</dim>
					<dim>192</dim>
					<dim>5</dim>
				</port>
			</input>
			<output>
				<port id="1" precision="FP32">
					<dim>384</dim>
					<dim>192</dim>
					<dim>5</dim>
				</port>
			</output>
		</layer>
		<layer id="107" name="aten::_convolution/Convolution_4" type="Convolution" version="opset1">
			<data strides="1" dilations="1" pads_begin="2" pads_end="2" auto_pad="explicit" />
			<input>
				<port id="0" precision="FP32">
					<dim>-1</dim>
					<dim>192</dim>
					<dim>-1</dim>
				</port>
				<port id="1" precision="FP32">
					<dim>384</dim>
					<dim>192</dim>
					<dim>5</dim>
				</port>
			</input>
			<output>
				<port id="2" precision="FP32">
					<dim>-1</dim>
					<dim>384</dim>
					<dim>-1</dim>
				</port>
			</output>
		</layer>
		<layer id="108" name="aten::_convolution/Reshape_4" type="Const" version="opset1">
			<data element_type="f32" shape="1, 384, 1" offset="2533308" size="1536" />
			<output>
				<port id="0" precision="FP32">
					<dim>1</dim>
					<dim>384</dim>
					<dim>1</dim>
				</port>
			</output>
		</layer>
		<layer id="109" name="aten::_convolution/Add_4" type="Add" version="opset1">
			<data auto_broadcast="numpy" />
			<input>
				<port id="0" precision="FP32">
					<dim>-1</dim>
					<dim>384</dim>
					<dim>-1</dim>
				</port>
				<port id="1" precision="FP32">
					<dim>1</dim>
					<dim>384</dim>
					<dim>1</dim>
				</port>
			</input>
			<output>
				<port id="2" precision="FP32" names="198,x_in.3">
					<dim>-1</dim>
					<dim>384</dim>
					<dim>-1</dim>
				</port>
			</output>
		</layer>
		<layer id="110" name="Constant_831953" type="Const" version="opset1">
			<data element_type="i64" shape="1" offset="2087072" size="8" />
			<output>
				<port id="0" precision="I64">
					<dim>1</dim>
				</port>
			</output>
		</layer>
		<layer id="111" name="Constant_831955" type="Const" version="opset1">
			<data element_type="i64" shape="1" offset="2534844" size="8" />
			<output>
				<port id="0" precision="I64">
					<dim>1</dim>
				</port>
			</output>
		</layer>
		<layer id="112" name="Constant_831957" type="Const" version="opset1">
			<data element_type="i64" shape="1" offset="99864" size="8" />
			<output>
				<port id="0" precision="I64">
					<dim>1</dim>
				</port>
			</output>
		</layer>
		<layer id="113" name="Constant_831951" type="Const" version="opset1">
			<data element_type="i64" shape="1" offset="99864" size="8" />
			<output>
				<port id="0" precision="I64">
					<dim>1</dim>
				</port>
			</output>
		</layer>
		<layer id="114" name="aten::slice/Slice_16" type="Slice" version="opset8">
			<input>
				<port id="0" precision="FP32">
					<dim>-1</dim>
					<dim>6144</dim>
					<dim>-1</dim>
				</port>
				<port id="1" precision="I64">
					<dim>1</dim>
				</port>
				<port id="2" precision="I64">
					<dim>1</dim>
				</port>
				<port id="3" precision="I64">
					<dim>1</dim>
				</port>
				<port id="4" precision="I64">
					<dim>1</dim>
				</port>
			</input>
			<output>
				<port id="5" precision="FP32" names="208,213,g_l.3">
					<dim>-1</dim>
					<dim>384</dim>
					<dim>-1</dim>
				</port>
			</output>
		</layer>
		<layer id="115" name="aten::add/Add_3" type="Add" version="opset1">
			<data auto_broadcast="numpy" />
			<input>
				<port id="0" precision="FP32">
					<dim>-1</dim>
					<dim>384</dim>
					<dim>-1</dim>
				</port>
				<port id="1" precision="FP32">
					<dim>-1</dim>
					<dim>384</dim>
					<dim>-1</dim>
				</port>
			</input>
			<output>
				<port id="2" precision="FP32" names="6870,6871,6876,in_act.4">
					<dim>-1</dim>
					<dim>384</dim>
					<dim>-1</dim>
				</port>
			</output>
		</layer>
		<layer id="116" name="aten::slice/Constant_12" type="Const" version="opset1">
			<data element_type="i32" shape="1" offset="99840" size="4" />
			<output>
				<port id="0" precision="I32">
					<dim>1</dim>
				</port>
			</output>
		</layer>
		<layer id="117" name="Constant_832007" type="Const" version="opset1">
			<data element_type="i64" shape="1" offset="2087080" size="8" />
			<output>
				<port id="0" precision="I64">
					<dim>1</dim>
				</port>
			</output>
		</layer>
		<layer id="118" name="Constant_832009" type="Const" version="opset1">
			<data element_type="i64" shape="1" offset="99864" size="8" />
			<output>
				<port id="0" precision="I64">
					<dim>1</dim>
				</port>
			</output>
		</layer>
		<layer id="119" name="Constant_831996" type="Const" version="opset1">
			<data element_type="i64" shape="1" offset="99864" size="8" />
			<output>
				<port id="0" precision="I64">
					<dim>1</dim>
				</port>
			</output>
		</layer>
		<layer id="120" name="aten::slice/Slice_19" type="Slice" version="opset8">
			<input>
				<port id="0" precision="FP32">
					<dim>-1</dim>
					<dim>384</dim>
					<dim>-1</dim>
				</port>
				<port id="1" precision="I32">
					<dim>1</dim>
				</port>
				<port id="2" precision="I64">
					<dim>1</dim>
				</port>
				<port id="3" precision="I64">
					<dim>1</dim>
				</port>
				<port id="4" precision="I64">
					<dim>1</dim>
				</port>
			</input>
			<output>
				<port id="5" precision="FP32" names="6873,6874">
					<dim>-1</dim>
					<dim>192</dim>
					<dim>-1</dim>
				</port>
			</output>
		</layer>
		<layer id="121" name="aten::tanh/Tanh_1" type="Tanh" version="opset1">
			<input>
				<port id="0" precision="FP32">
					<dim>-1</dim>
					<dim>192</dim>
					<dim>-1</dim>
				</port>
			</input>
			<output>
				<port id="1" precision="FP32" names="6875,t_act.4">
					<dim>-1</dim>
					<dim>192</dim>
					<dim>-1</dim>
				</port>
			</output>
		</layer>
		<layer id="122" name="Constant_832047" type="Const" version="opset1">
			<data element_type="i64" shape="1" offset="2087080" size="8" />
			<output>
				<port id="0" precision="I64">
					<dim>1</dim>
				</port>
			</output>
		</layer>
		<layer id="123" name="aten::slice/Constant_17" type="Const" version="opset1">
			<data element_type="i32" shape="1" offset="2087088" size="4" />
			<output>
				<port id="0" precision="I32">
					<dim>1</dim>
				</port>
			</output>
		</layer>
		<layer id="124" name="Constant_832050" type="Const" version="opset1">
			<data element_type="i64" shape="1" offset="99864" size="8" />
			<output>
				<port id="0" precision="I64">
					<dim>1</dim>
				</port>
			</output>
		</layer>
		<layer id="125" name="Constant_832037" type="Const" version="opset1">
			<data element_type="i64" shape="1" offset="99864" size="8" />
			<output>
				<port id="0" precision="I64">
					<dim>1</dim>
				</port>
			</output>
		</layer>
		<layer id="126" name="aten::slice/Slice_22" type="Slice" version="opset8">
			<input>
				<port id="0" precision="FP32">
					<dim>-1</dim>
					<dim>384</dim>
					<dim>-1</dim>
				</port>
				<port id="1" precision="I64">
					<dim>1</dim>
				</port>
				<port id="2" precision="I32">
					<dim>1</dim>
				</port>
				<port id="3" precision="I64">
					<dim>1</dim>
				</port>
				<port id="4" precision="I64">
					<dim>1</dim>
				</port>
			</input>
			<output>
				<port id="5" precision="FP32" names="6878,6879">
					<dim>-1</dim>
					<dim>192</dim>
					<dim>-1</dim>
				</port>
			</output>
		</layer>
		<layer id="127" name="aten::sigmoid/Sigmoid_1" type="Sigmoid" version="opset1">
			<input>
				<port id="0" precision="FP32">
					<dim>-1</dim>
					<dim>192</dim>
					<dim>-1</dim>
				</port>
			</input>
			<output>
				<port id="1" precision="FP32" names="6880,s_act.4">
					<dim>-1</dim>
					<dim>192</dim>
					<dim>-1</dim>
				</port>
			</output>
		</layer>
		<layer id="128" name="aten::mul/Multiply_3" type="Multiply" version="opset1">
			<data auto_broadcast="numpy" />
			<input>
				<port id="0" precision="FP32">
					<dim>-1</dim>
					<dim>192</dim>
					<dim>-1</dim>
				</port>
				<port id="1" precision="FP32">
					<dim>-1</dim>
					<dim>192</dim>
					<dim>-1</dim>
				</port>
			</input>
			<output>
				<port id="2" precision="FP32" names="6881,input.3">
					<dim>-1</dim>
					<dim>192</dim>
					<dim>-1</dim>
				</port>
			</output>
		</layer>
		<layer id="129" name="aten::_weight_norm/Multiply_4" type="Const" version="opset1">
			<data element_type="u8" shape="384, 192, 1" offset="2534852" size="73728" />
			<output>
				<port id="0" precision="U8">
					<dim>384</dim>
					<dim>192</dim>
					<dim>1</dim>
				</port>
			</output>
		</layer>
		<layer id="130" name="Convert_1241364" type="Convert" version="opset1">
			<data destination_type="f16" />
			<input>
				<port id="0" precision="U8">
					<dim>384</dim>
					<dim>192</dim>
					<dim>1</dim>
				</port>
			</input>
			<output>
				<port id="1" precision="FP16">
					<dim>384</dim>
					<dim>192</dim>
					<dim>1</dim>
				</port>
			</output>
		</layer>
		<layer id="131" name="aten::_weight_norm/Multiply_4/zero_point" type="Const" version="opset1">
			<data element_type="u8" shape="384, 1, 1" offset="2608580" size="384" />
			<output>
				<port id="0" precision="U8">
					<dim>384</dim>
					<dim>1</dim>
					<dim>1</dim>
				</port>
			</output>
		</layer>
		<layer id="132" name="Convert_1241367" type="Convert" version="opset1">
			<data destination_type="f16" />
			<input>
				<port id="0" precision="U8">
					<dim>384</dim>
					<dim>1</dim>
					<dim>1</dim>
				</port>
			</input>
			<output>
				<port id="1" precision="FP16">
					<dim>384</dim>
					<dim>1</dim>
					<dim>1</dim>
				</port>
			</output>
		</layer>
		<layer id="133" name="aten::_weight_norm/Multiply_4/zero_point/subtract" type="Subtract" version="opset1">
			<data auto_broadcast="numpy" />
			<input>
				<port id="0" precision="FP16">
					<dim>384</dim>
					<dim>192</dim>
					<dim>1</dim>
				</port>
				<port id="1" precision="FP16">
					<dim>384</dim>
					<dim>1</dim>
					<dim>1</dim>
				</port>
			</input>
			<output>
				<port id="2" precision="FP16">
					<dim>384</dim>
					<dim>192</dim>
					<dim>1</dim>
				</port>
			</output>
		</layer>
		<layer id="134" name="aten::_weight_norm/Multiply_4/scale" type="Const" version="opset1">
			<data element_type="f16" shape="384, 1, 1" offset="2608964" size="768" />
			<output>
				<port id="0" precision="FP16">
					<dim>384</dim>
					<dim>1</dim>
					<dim>1</dim>
				</port>
			</output>
		</layer>
		<layer id="135" name="aten::_weight_norm/Multiply_4/fq_weights_1" type="Multiply" version="opset1">
			<data auto_broadcast="numpy" />
			<input>
				<port id="0" precision="FP16">
					<dim>384</dim>
					<dim>192</dim>
					<dim>1</dim>
				</port>
				<port id="1" precision="FP16">
					<dim>384</dim>
					<dim>1</dim>
					<dim>1</dim>
				</port>
			</input>
			<output>
				<port id="2" precision="FP16">
					<dim>384</dim>
					<dim>192</dim>
					<dim>1</dim>
				</port>
			</output>
		</layer>
		<layer id="136" name="aten::_weight_norm/Multiply_4/fq_weights_1/convert" type="Convert" version="opset1">
			<data destination_type="f32" />
			<input>
				<port id="0" precision="FP16">
					<dim>384</dim>
					<dim>192</dim>
					<dim>1</dim>
				</port>
			</input>
			<output>
				<port id="1" precision="FP32">
					<dim>384</dim>
					<dim>192</dim>
					<dim>1</dim>
				</port>
			</output>
		</layer>
		<layer id="137" name="aten::_convolution/Convolution_5" type="Convolution" version="opset1">
			<data strides="1" dilations="1" pads_begin="0" pads_end="0" auto_pad="explicit" />
			<input>
				<port id="0" precision="FP32">
					<dim>-1</dim>
					<dim>192</dim>
					<dim>-1</dim>
				</port>
				<port id="1" precision="FP32">
					<dim>384</dim>
					<dim>192</dim>
					<dim>1</dim>
				</port>
			</input>
			<output>
				<port id="2" precision="FP32">
					<dim>-1</dim>
					<dim>384</dim>
					<dim>-1</dim>
				</port>
			</output>
		</layer>
		<layer id="138" name="aten::_convolution/Reshape_5" type="Const" version="opset1">
			<data element_type="f32" shape="1, 384, 1" offset="2609732" size="1536" />
			<output>
				<port id="0" precision="FP32">
					<dim>1</dim>
					<dim>384</dim>
					<dim>1</dim>
				</port>
			</output>
		</layer>
		<layer id="139" name="aten::_convolution/Add_5" type="Add" version="opset1">
			<data auto_broadcast="numpy" />
			<input>
				<port id="0" precision="FP32">
					<dim>-1</dim>
					<dim>384</dim>
					<dim>-1</dim>
				</port>
				<port id="1" precision="FP32">
					<dim>1</dim>
					<dim>384</dim>
					<dim>1</dim>
				</port>
			</input>
			<output>
				<port id="2" precision="FP32" names="238,243,261,res_skip_acts.3">
					<dim>-1</dim>
					<dim>384</dim>
					<dim>-1</dim>
				</port>
			</output>
		</layer>
		<layer id="140" name="Constant_832234" type="Const" version="opset1">
			<data element_type="i64" shape="1" offset="2087080" size="8" />
			<output>
				<port id="0" precision="I64">
					<dim>1</dim>
				</port>
			</output>
		</layer>
		<layer id="141" name="Constant_832236" type="Const" version="opset1">
			<data element_type="i64" shape="1" offset="2163508" size="8" />
			<output>
				<port id="0" precision="I64">
					<dim>1</dim>
				</port>
			</output>
		</layer>
		<layer id="142" name="Constant_832238" type="Const" version="opset1">
			<data element_type="i64" shape="1" offset="99864" size="8" />
			<output>
				<port id="0" precision="I64">
					<dim>1</dim>
				</port>
			</output>
		</layer>
		<layer id="143" name="Constant_832232" type="Const" version="opset1">
			<data element_type="i64" shape="1" offset="99864" size="8" />
			<output>
				<port id="0" precision="I64">
					<dim>1</dim>
				</port>
			</output>
		</layer>
		<layer id="144" name="aten::slice/Slice_25" type="Slice" version="opset8">
			<input>
				<port id="0" precision="FP32">
					<dim>-1</dim>
					<dim>384</dim>
					<dim>-1</dim>
				</port>
				<port id="1" precision="I64">
					<dim>1</dim>
				</port>
				<port id="2" precision="I64">
					<dim>1</dim>
				</port>
				<port id="3" precision="I64">
					<dim>1</dim>
				</port>
				<port id="4" precision="I64">
					<dim>1</dim>
				</port>
			</input>
			<output>
				<port id="5" precision="FP32" names="266,271">
					<dim>-1</dim>
					<dim>192</dim>
					<dim>-1</dim>
				</port>
			</output>
		</layer>
		<layer id="145" name="Add_893899" type="Add" version="opset1">
			<data auto_broadcast="numpy" />
			<input>
				<port id="0" precision="FP32">
					<dim>-1</dim>
					<dim>192</dim>
					<dim>-1</dim>
				</port>
				<port id="1" precision="FP32">
					<dim>-1</dim>
					<dim>192</dim>
					<dim>-1</dim>
				</port>
			</input>
			<output>
				<port id="2" precision="FP32">
					<dim>-1</dim>
					<dim>192</dim>
					<dim>-1</dim>
				</port>
			</output>
		</layer>
		<layer id="146" name="Constant_832181" type="Const" version="opset1">
			<data element_type="i64" shape="1" offset="99852" size="8" />
			<output>
				<port id="0" precision="I64">
					<dim>1</dim>
				</port>
			</output>
		</layer>
		<layer id="147" name="Constant_832183" type="Const" version="opset1">
			<data element_type="i64" shape="1" offset="2087080" size="8" />
			<output>
				<port id="0" precision="I64">
					<dim>1</dim>
				</port>
			</output>
		</layer>
		<layer id="148" name="Constant_832185" type="Const" version="opset1">
			<data element_type="i64" shape="1" offset="99864" size="8" />
			<output>
				<port id="0" precision="I64">
					<dim>1</dim>
				</port>
			</output>
		</layer>
		<layer id="149" name="Constant_832179" type="Const" version="opset1">
			<data element_type="i64" shape="1" offset="99864" size="8" />
			<output>
				<port id="0" precision="I64">
					<dim>1</dim>
				</port>
			</output>
		</layer>
		<layer id="150" name="aten::slice/Slice_28" type="Slice" version="opset8">
			<input>
				<port id="0" precision="FP32">
					<dim>-1</dim>
					<dim>384</dim>
					<dim>-1</dim>
				</port>
				<port id="1" precision="I64">
					<dim>1</dim>
				</port>
				<port id="2" precision="I64">
					<dim>1</dim>
				</port>
				<port id="3" precision="I64">
					<dim>1</dim>
				</port>
				<port id="4" precision="I64">
					<dim>1</dim>
				</port>
			</input>
			<output>
				<port id="5" precision="FP32" names="248,253,res_acts.3">
					<dim>-1</dim>
					<dim>192</dim>
					<dim>-1</dim>
				</port>
			</output>
		</layer>
		<layer id="151" name="aten::add/Add_5" type="Add" version="opset1">
			<data auto_broadcast="numpy" />
			<input>
				<port id="0" precision="FP32">
					<dim>-1</dim>
					<dim>192</dim>
					<dim>-1</dim>
				</port>
				<port id="1" precision="FP32">
					<dim>-1</dim>
					<dim>192</dim>
					<dim>-1</dim>
				</port>
			</input>
			<output>
				<port id="2" precision="FP32" names="255">
					<dim>-1</dim>
					<dim>192</dim>
					<dim>-1</dim>
				</port>
			</output>
		</layer>
		<layer id="152" name="aten::mul/Multiply_4" type="Multiply" version="opset1">
			<data auto_broadcast="numpy" />
			<input>
				<port id="0" precision="FP32">
					<dim>-1</dim>
					<dim>192</dim>
					<dim>-1</dim>
				</port>
				<port id="1" precision="FP32">
					<dim>-1</dim>
					<dim>1</dim>
					<dim>-1</dim>
				</port>
			</input>
			<output>
				<port id="2" precision="FP32" names="256,x.7">
					<dim>-1</dim>
					<dim>192</dim>
					<dim>-1</dim>
				</port>
			</output>
		</layer>
		<layer id="153" name="aten::_weight_norm/Multiply_5" type="Const" version="opset1">
			<data element_type="u8" shape="384, 192, 5" offset="2611268" size="368640" />
			<output>
				<port id="0" precision="U8">
					<dim>384</dim>
					<dim>192</dim>
					<dim>5</dim>
				</port>
			</output>
		</layer>
		<layer id="154" name="Convert_1025124" type="Convert" version="opset1">
			<data destination_type="f16" />
			<input>
				<port id="0" precision="U8">
					<dim>384</dim>
					<dim>192</dim>
					<dim>5</dim>
				</port>
			</input>
			<output>
				<port id="1" precision="FP16">
					<dim>384</dim>
					<dim>192</dim>
					<dim>5</dim>
				</port>
			</output>
		</layer>
		<layer id="155" name="aten::_weight_norm/Multiply_5/zero_point" type="Const" version="opset1">
			<data element_type="u8" shape="384, 1, 1" offset="2979908" size="384" />
			<output>
				<port id="0" precision="U8">
					<dim>384</dim>
					<dim>1</dim>
					<dim>1</dim>
				</port>
			</output>
		</layer>
		<layer id="156" name="Convert_1025127" type="Convert" version="opset1">
			<data destination_type="f16" />
			<input>
				<port id="0" precision="U8">
					<dim>384</dim>
					<dim>1</dim>
					<dim>1</dim>
				</port>
			</input>
			<output>
				<port id="1" precision="FP16">
					<dim>384</dim>
					<dim>1</dim>
					<dim>1</dim>
				</port>
			</output>
		</layer>
		<layer id="157" name="aten::_weight_norm/Multiply_5/zero_point/subtract" type="Subtract" version="opset1">
			<data auto_broadcast="numpy" />
			<input>
				<port id="0" precision="FP16">
					<dim>384</dim>
					<dim>192</dim>
					<dim>5</dim>
				</port>
				<port id="1" precision="FP16">
					<dim>384</dim>
					<dim>1</dim>
					<dim>1</dim>
				</port>
			</input>
			<output>
				<port id="2" precision="FP16">
					<dim>384</dim>
					<dim>192</dim>
					<dim>5</dim>
				</port>
			</output>
		</layer>
		<layer id="158" name="aten::_weight_norm/Multiply_5/scale" type="Const" version="opset1">
			<data element_type="f16" shape="384, 1, 1" offset="2980292" size="768" />
			<output>
				<port id="0" precision="FP16">
					<dim>384</dim>
					<dim>1</dim>
					<dim>1</dim>
				</port>
			</output>
		</layer>
		<layer id="159" name="aten::_weight_norm/Multiply_5/fq_weights_1" type="Multiply" version="opset1">
			<data auto_broadcast="numpy" />
			<input>
				<port id="0" precision="FP16">
					<dim>384</dim>
					<dim>192</dim>
					<dim>5</dim>
				</port>
				<port id="1" precision="FP16">
					<dim>384</dim>
					<dim>1</dim>
					<dim>1</dim>
				</port>
			</input>
			<output>
				<port id="2" precision="FP16">
					<dim>384</dim>
					<dim>192</dim>
					<dim>5</dim>
				</port>
			</output>
		</layer>
		<layer id="160" name="aten::_weight_norm/Multiply_5/fq_weights_1/convert" type="Convert" version="opset1">
			<data destination_type="f32" />
			<input>
				<port id="0" precision="FP16">
					<dim>384</dim>
					<dim>192</dim>
					<dim>5</dim>
				</port>
			</input>
			<output>
				<port id="1" precision="FP32">
					<dim>384</dim>
					<dim>192</dim>
					<dim>5</dim>
				</port>
			</output>
		</layer>
		<layer id="161" name="aten::_convolution/Convolution_6" type="Convolution" version="opset1">
			<data strides="1" dilations="1" pads_begin="2" pads_end="2" auto_pad="explicit" />
			<input>
				<port id="0" precision="FP32">
					<dim>-1</dim>
					<dim>192</dim>
					<dim>-1</dim>
				</port>
				<port id="1" precision="FP32">
					<dim>384</dim>
					<dim>192</dim>
					<dim>5</dim>
				</port>
			</input>
			<output>
				<port id="2" precision="FP32">
					<dim>-1</dim>
					<dim>384</dim>
					<dim>-1</dim>
				</port>
			</output>
		</layer>
		<layer id="162" name="aten::_convolution/Reshape_6" type="Const" version="opset1">
			<data element_type="f32" shape="1, 384, 1" offset="2981060" size="1536" />
			<output>
				<port id="0" precision="FP32">
					<dim>1</dim>
					<dim>384</dim>
					<dim>1</dim>
				</port>
			</output>
		</layer>
		<layer id="163" name="aten::_convolution/Add_6" type="Add" version="opset1">
			<data auto_broadcast="numpy" />
			<input>
				<port id="0" precision="FP32">
					<dim>-1</dim>
					<dim>384</dim>
					<dim>-1</dim>
				</port>
				<port id="1" precision="FP32">
					<dim>1</dim>
					<dim>384</dim>
					<dim>1</dim>
				</port>
			</input>
			<output>
				<port id="2" precision="FP32" names="293,x_in.5">
					<dim>-1</dim>
					<dim>384</dim>
					<dim>-1</dim>
				</port>
			</output>
		</layer>
		<layer id="164" name="Constant_832369" type="Const" version="opset1">
			<data element_type="i64" shape="1" offset="2534844" size="8" />
			<output>
				<port id="0" precision="I64">
					<dim>1</dim>
				</port>
			</output>
		</layer>
		<layer id="165" name="Constant_832371" type="Const" version="opset1">
			<data element_type="i64" shape="1" offset="2982596" size="8" />
			<output>
				<port id="0" precision="I64">
					<dim>1</dim>
				</port>
			</output>
		</layer>
		<layer id="166" name="Constant_832373" type="Const" version="opset1">
			<data element_type="i64" shape="1" offset="99864" size="8" />
			<output>
				<port id="0" precision="I64">
					<dim>1</dim>
				</port>
			</output>
		</layer>
		<layer id="167" name="Constant_832367" type="Const" version="opset1">
			<data element_type="i64" shape="1" offset="99864" size="8" />
			<output>
				<port id="0" precision="I64">
					<dim>1</dim>
				</port>
			</output>
		</layer>
		<layer id="168" name="aten::slice/Slice_31" type="Slice" version="opset8">
			<input>
				<port id="0" precision="FP32">
					<dim>-1</dim>
					<dim>6144</dim>
					<dim>-1</dim>
				</port>
				<port id="1" precision="I64">
					<dim>1</dim>
				</port>
				<port id="2" precision="I64">
					<dim>1</dim>
				</port>
				<port id="3" precision="I64">
					<dim>1</dim>
				</port>
				<port id="4" precision="I64">
					<dim>1</dim>
				</port>
			</input>
			<output>
				<port id="5" precision="FP32" names="303,308,g_l.5">
					<dim>-1</dim>
					<dim>384</dim>
					<dim>-1</dim>
				</port>
			</output>
		</layer>
		<layer id="169" name="aten::add/Add_6" type="Add" version="opset1">
			<data auto_broadcast="numpy" />
			<input>
				<port id="0" precision="FP32">
					<dim>-1</dim>
					<dim>384</dim>
					<dim>-1</dim>
				</port>
				<port id="1" precision="FP32">
					<dim>-1</dim>
					<dim>384</dim>
					<dim>-1</dim>
				</port>
			</input>
			<output>
				<port id="2" precision="FP32" names="6887,6888,6893,in_act.6">
					<dim>-1</dim>
					<dim>384</dim>
					<dim>-1</dim>
				</port>
			</output>
		</layer>
		<layer id="170" name="aten::slice/Constant_22" type="Const" version="opset1">
			<data element_type="i32" shape="1" offset="99840" size="4" />
			<output>
				<port id="0" precision="I32">
					<dim>1</dim>
				</port>
			</output>
		</layer>
		<layer id="171" name="Constant_832423" type="Const" version="opset1">
			<data element_type="i64" shape="1" offset="2087080" size="8" />
			<output>
				<port id="0" precision="I64">
					<dim>1</dim>
				</port>
			</output>
		</layer>
		<layer id="172" name="Constant_832425" type="Const" version="opset1">
			<data element_type="i64" shape="1" offset="99864" size="8" />
			<output>
				<port id="0" precision="I64">
					<dim>1</dim>
				</port>
			</output>
		</layer>
		<layer id="173" name="Constant_832412" type="Const" version="opset1">
			<data element_type="i64" shape="1" offset="99864" size="8" />
			<output>
				<port id="0" precision="I64">
					<dim>1</dim>
				</port>
			</output>
		</layer>
		<layer id="174" name="aten::slice/Slice_34" type="Slice" version="opset8">
			<input>
				<port id="0" precision="FP32">
					<dim>-1</dim>
					<dim>384</dim>
					<dim>-1</dim>
				</port>
				<port id="1" precision="I32">
					<dim>1</dim>
				</port>
				<port id="2" precision="I64">
					<dim>1</dim>
				</port>
				<port id="3" precision="I64">
					<dim>1</dim>
				</port>
				<port id="4" precision="I64">
					<dim>1</dim>
				</port>
			</input>
			<output>
				<port id="5" precision="FP32" names="6890,6891">
					<dim>-1</dim>
					<dim>192</dim>
					<dim>-1</dim>
				</port>
			</output>
		</layer>
		<layer id="175" name="aten::tanh/Tanh_2" type="Tanh" version="opset1">
			<input>
				<port id="0" precision="FP32">
					<dim>-1</dim>
					<dim>192</dim>
					<dim>-1</dim>
				</port>
			</input>
			<output>
				<port id="1" precision="FP32" names="6892,t_act.6">
					<dim>-1</dim>
					<dim>192</dim>
					<dim>-1</dim>
				</port>
			</output>
		</layer>
		<layer id="176" name="Constant_832463" type="Const" version="opset1">
			<data element_type="i64" shape="1" offset="2087080" size="8" />
			<output>
				<port id="0" precision="I64">
					<dim>1</dim>
				</port>
			</output>
		</layer>
		<layer id="177" name="aten::slice/Constant_27" type="Const" version="opset1">
			<data element_type="i32" shape="1" offset="2087088" size="4" />
			<output>
				<port id="0" precision="I32">
					<dim>1</dim>
				</port>
			</output>
		</layer>
		<layer id="178" name="Constant_832466" type="Const" version="opset1">
			<data element_type="i64" shape="1" offset="99864" size="8" />
			<output>
				<port id="0" precision="I64">
					<dim>1</dim>
				</port>
			</output>
		</layer>
		<layer id="179" name="Constant_832453" type="Const" version="opset1">
			<data element_type="i64" shape="1" offset="99864" size="8" />
			<output>
				<port id="0" precision="I64">
					<dim>1</dim>
				</port>
			</output>
		</layer>
		<layer id="180" name="aten::slice/Slice_37" type="Slice" version="opset8">
			<input>
				<port id="0" precision="FP32">
					<dim>-1</dim>
					<dim>384</dim>
					<dim>-1</dim>
				</port>
				<port id="1" precision="I64">
					<dim>1</dim>
				</port>
				<port id="2" precision="I32">
					<dim>1</dim>
				</port>
				<port id="3" precision="I64">
					<dim>1</dim>
				</port>
				<port id="4" precision="I64">
					<dim>1</dim>
				</port>
			</input>
			<output>
				<port id="5" precision="FP32" names="6895,6896">
					<dim>-1</dim>
					<dim>192</dim>
					<dim>-1</dim>
				</port>
			</output>
		</layer>
		<layer id="181" name="aten::sigmoid/Sigmoid_2" type="Sigmoid" version="opset1">
			<input>
				<port id="0" precision="FP32">
					<dim>-1</dim>
					<dim>192</dim>
					<dim>-1</dim>
				</port>
			</input>
			<output>
				<port id="1" precision="FP32" names="6897,s_act.6">
					<dim>-1</dim>
					<dim>192</dim>
					<dim>-1</dim>
				</port>
			</output>
		</layer>
		<layer id="182" name="aten::mul/Multiply_5" type="Multiply" version="opset1">
			<data auto_broadcast="numpy" />
			<input>
				<port id="0" precision="FP32">
					<dim>-1</dim>
					<dim>192</dim>
					<dim>-1</dim>
				</port>
				<port id="1" precision="FP32">
					<dim>-1</dim>
					<dim>192</dim>
					<dim>-1</dim>
				</port>
			</input>
			<output>
				<port id="2" precision="FP32" names="6898,input.5">
					<dim>-1</dim>
					<dim>192</dim>
					<dim>-1</dim>
				</port>
			</output>
		</layer>
		<layer id="183" name="aten::_weight_norm/Multiply_6" type="Const" version="opset1">
			<data element_type="u8" shape="384, 192, 1" offset="2982604" size="73728" />
			<output>
				<port id="0" precision="U8">
					<dim>384</dim>
					<dim>192</dim>
					<dim>1</dim>
				</port>
			</output>
		</layer>
		<layer id="184" name="Convert_1245604" type="Convert" version="opset1">
			<data destination_type="f16" />
			<input>
				<port id="0" precision="U8">
					<dim>384</dim>
					<dim>192</dim>
					<dim>1</dim>
				</port>
			</input>
			<output>
				<port id="1" precision="FP16">
					<dim>384</dim>
					<dim>192</dim>
					<dim>1</dim>
				</port>
			</output>
		</layer>
		<layer id="185" name="aten::_weight_norm/Multiply_6/zero_point" type="Const" version="opset1">
			<data element_type="u8" shape="384, 1, 1" offset="3056332" size="384" />
			<output>
				<port id="0" precision="U8">
					<dim>384</dim>
					<dim>1</dim>
					<dim>1</dim>
				</port>
			</output>
		</layer>
		<layer id="186" name="Convert_1245607" type="Convert" version="opset1">
			<data destination_type="f16" />
			<input>
				<port id="0" precision="U8">
					<dim>384</dim>
					<dim>1</dim>
					<dim>1</dim>
				</port>
			</input>
			<output>
				<port id="1" precision="FP16">
					<dim>384</dim>
					<dim>1</dim>
					<dim>1</dim>
				</port>
			</output>
		</layer>
		<layer id="187" name="aten::_weight_norm/Multiply_6/zero_point/subtract" type="Subtract" version="opset1">
			<data auto_broadcast="numpy" />
			<input>
				<port id="0" precision="FP16">
					<dim>384</dim>
					<dim>192</dim>
					<dim>1</dim>
				</port>
				<port id="1" precision="FP16">
					<dim>384</dim>
					<dim>1</dim>
					<dim>1</dim>
				</port>
			</input>
			<output>
				<port id="2" precision="FP16">
					<dim>384</dim>
					<dim>192</dim>
					<dim>1</dim>
				</port>
			</output>
		</layer>
		<layer id="188" name="aten::_weight_norm/Multiply_6/scale" type="Const" version="opset1">
			<data element_type="f16" shape="384, 1, 1" offset="3056716" size="768" />
			<output>
				<port id="0" precision="FP16">
					<dim>384</dim>
					<dim>1</dim>
					<dim>1</dim>
				</port>
			</output>
		</layer>
		<layer id="189" name="aten::_weight_norm/Multiply_6/fq_weights_1" type="Multiply" version="opset1">
			<data auto_broadcast="numpy" />
			<input>
				<port id="0" precision="FP16">
					<dim>384</dim>
					<dim>192</dim>
					<dim>1</dim>
				</port>
				<port id="1" precision="FP16">
					<dim>384</dim>
					<dim>1</dim>
					<dim>1</dim>
				</port>
			</input>
			<output>
				<port id="2" precision="FP16">
					<dim>384</dim>
					<dim>192</dim>
					<dim>1</dim>
				</port>
			</output>
		</layer>
		<layer id="190" name="aten::_weight_norm/Multiply_6/fq_weights_1/convert" type="Convert" version="opset1">
			<data destination_type="f32" />
			<input>
				<port id="0" precision="FP16">
					<dim>384</dim>
					<dim>192</dim>
					<dim>1</dim>
				</port>
			</input>
			<output>
				<port id="1" precision="FP32">
					<dim>384</dim>
					<dim>192</dim>
					<dim>1</dim>
				</port>
			</output>
		</layer>
		<layer id="191" name="aten::_convolution/Convolution_7" type="Convolution" version="opset1">
			<data strides="1" dilations="1" pads_begin="0" pads_end="0" auto_pad="explicit" />
			<input>
				<port id="0" precision="FP32">
					<dim>-1</dim>
					<dim>192</dim>
					<dim>-1</dim>
				</port>
				<port id="1" precision="FP32">
					<dim>384</dim>
					<dim>192</dim>
					<dim>1</dim>
				</port>
			</input>
			<output>
				<port id="2" precision="FP32">
					<dim>-1</dim>
					<dim>384</dim>
					<dim>-1</dim>
				</port>
			</output>
		</layer>
		<layer id="192" name="aten::_convolution/Reshape_7" type="Const" version="opset1">
			<data element_type="f32" shape="1, 384, 1" offset="3057484" size="1536" />
			<output>
				<port id="0" precision="FP32">
					<dim>1</dim>
					<dim>384</dim>
					<dim>1</dim>
				</port>
			</output>
		</layer>
		<layer id="193" name="aten::_convolution/Add_7" type="Add" version="opset1">
			<data auto_broadcast="numpy" />
			<input>
				<port id="0" precision="FP32">
					<dim>-1</dim>
					<dim>384</dim>
					<dim>-1</dim>
				</port>
				<port id="1" precision="FP32">
					<dim>1</dim>
					<dim>384</dim>
					<dim>1</dim>
				</port>
			</input>
			<output>
				<port id="2" precision="FP32" names="333,338,356,res_skip_acts.5">
					<dim>-1</dim>
					<dim>384</dim>
					<dim>-1</dim>
				</port>
			</output>
		</layer>
		<layer id="194" name="Constant_832650" type="Const" version="opset1">
			<data element_type="i64" shape="1" offset="2087080" size="8" />
			<output>
				<port id="0" precision="I64">
					<dim>1</dim>
				</port>
			</output>
		</layer>
		<layer id="195" name="Constant_832652" type="Const" version="opset1">
			<data element_type="i64" shape="1" offset="2163508" size="8" />
			<output>
				<port id="0" precision="I64">
					<dim>1</dim>
				</port>
			</output>
		</layer>
		<layer id="196" name="Constant_832654" type="Const" version="opset1">
			<data element_type="i64" shape="1" offset="99864" size="8" />
			<output>
				<port id="0" precision="I64">
					<dim>1</dim>
				</port>
			</output>
		</layer>
		<layer id="197" name="Constant_832648" type="Const" version="opset1">
			<data element_type="i64" shape="1" offset="99864" size="8" />
			<output>
				<port id="0" precision="I64">
					<dim>1</dim>
				</port>
			</output>
		</layer>
		<layer id="198" name="aten::slice/Slice_40" type="Slice" version="opset8">
			<input>
				<port id="0" precision="FP32">
					<dim>-1</dim>
					<dim>384</dim>
					<dim>-1</dim>
				</port>
				<port id="1" precision="I64">
					<dim>1</dim>
				</port>
				<port id="2" precision="I64">
					<dim>1</dim>
				</port>
				<port id="3" precision="I64">
					<dim>1</dim>
				</port>
				<port id="4" precision="I64">
					<dim>1</dim>
				</port>
			</input>
			<output>
				<port id="5" precision="FP32" names="361,366">
					<dim>-1</dim>
					<dim>192</dim>
					<dim>-1</dim>
				</port>
			</output>
		</layer>
		<layer id="199" name="Add_894039" type="Add" version="opset1">
			<data auto_broadcast="numpy" />
			<input>
				<port id="0" precision="FP32">
					<dim>-1</dim>
					<dim>192</dim>
					<dim>-1</dim>
				</port>
				<port id="1" precision="FP32">
					<dim>-1</dim>
					<dim>192</dim>
					<dim>-1</dim>
				</port>
			</input>
			<output>
				<port id="2" precision="FP32">
					<dim>-1</dim>
					<dim>192</dim>
					<dim>-1</dim>
				</port>
			</output>
		</layer>
		<layer id="200" name="Constant_832597" type="Const" version="opset1">
			<data element_type="i64" shape="1" offset="99852" size="8" />
			<output>
				<port id="0" precision="I64">
					<dim>1</dim>
				</port>
			</output>
		</layer>
		<layer id="201" name="Constant_832599" type="Const" version="opset1">
			<data element_type="i64" shape="1" offset="2087080" size="8" />
			<output>
				<port id="0" precision="I64">
					<dim>1</dim>
				</port>
			</output>
		</layer>
		<layer id="202" name="Constant_832601" type="Const" version="opset1">
			<data element_type="i64" shape="1" offset="99864" size="8" />
			<output>
				<port id="0" precision="I64">
					<dim>1</dim>
				</port>
			</output>
		</layer>
		<layer id="203" name="Constant_832595" type="Const" version="opset1">
			<data element_type="i64" shape="1" offset="99864" size="8" />
			<output>
				<port id="0" precision="I64">
					<dim>1</dim>
				</port>
			</output>
		</layer>
		<layer id="204" name="aten::slice/Slice_43" type="Slice" version="opset8">
			<input>
				<port id="0" precision="FP32">
					<dim>-1</dim>
					<dim>384</dim>
					<dim>-1</dim>
				</port>
				<port id="1" precision="I64">
					<dim>1</dim>
				</port>
				<port id="2" precision="I64">
					<dim>1</dim>
				</port>
				<port id="3" precision="I64">
					<dim>1</dim>
				</port>
				<port id="4" precision="I64">
					<dim>1</dim>
				</port>
			</input>
			<output>
				<port id="5" precision="FP32" names="343,348,res_acts.5">
					<dim>-1</dim>
					<dim>192</dim>
					<dim>-1</dim>
				</port>
			</output>
		</layer>
		<layer id="205" name="aten::add/Add_8" type="Add" version="opset1">
			<data auto_broadcast="numpy" />
			<input>
				<port id="0" precision="FP32">
					<dim>-1</dim>
					<dim>192</dim>
					<dim>-1</dim>
				</port>
				<port id="1" precision="FP32">
					<dim>-1</dim>
					<dim>192</dim>
					<dim>-1</dim>
				</port>
			</input>
			<output>
				<port id="2" precision="FP32" names="350">
					<dim>-1</dim>
					<dim>192</dim>
					<dim>-1</dim>
				</port>
			</output>
		</layer>
		<layer id="206" name="aten::mul/Multiply_6" type="Multiply" version="opset1">
			<data auto_broadcast="numpy" />
			<input>
				<port id="0" precision="FP32">
					<dim>-1</dim>
					<dim>192</dim>
					<dim>-1</dim>
				</port>
				<port id="1" precision="FP32">
					<dim>-1</dim>
					<dim>1</dim>
					<dim>-1</dim>
				</port>
			</input>
			<output>
				<port id="2" precision="FP32" names="351,x.9">
					<dim>-1</dim>
					<dim>192</dim>
					<dim>-1</dim>
				</port>
			</output>
		</layer>
		<layer id="207" name="aten::_weight_norm/Multiply_7" type="Const" version="opset1">
			<data element_type="u8" shape="384, 192, 5" offset="3059020" size="368640" />
			<output>
				<port id="0" precision="U8">
					<dim>384</dim>
					<dim>192</dim>
					<dim>5</dim>
				</port>
			</output>
		</layer>
		<layer id="208" name="Convert_1029364" type="Convert" version="opset1">
			<data destination_type="f16" />
			<input>
				<port id="0" precision="U8">
					<dim>384</dim>
					<dim>192</dim>
					<dim>5</dim>
				</port>
			</input>
			<output>
				<port id="1" precision="FP16">
					<dim>384</dim>
					<dim>192</dim>
					<dim>5</dim>
				</port>
			</output>
		</layer>
		<layer id="209" name="aten::_weight_norm/Multiply_7/zero_point" type="Const" version="opset1">
			<data element_type="u8" shape="384, 1, 1" offset="3427660" size="384" />
			<output>
				<port id="0" precision="U8">
					<dim>384</dim>
					<dim>1</dim>
					<dim>1</dim>
				</port>
			</output>
		</layer>
		<layer id="210" name="Convert_1029367" type="Convert" version="opset1">
			<data destination_type="f16" />
			<input>
				<port id="0" precision="U8">
					<dim>384</dim>
					<dim>1</dim>
					<dim>1</dim>
				</port>
			</input>
			<output>
				<port id="1" precision="FP16">
					<dim>384</dim>
					<dim>1</dim>
					<dim>1</dim>
				</port>
			</output>
		</layer>
		<layer id="211" name="aten::_weight_norm/Multiply_7/zero_point/subtract" type="Subtract" version="opset1">
			<data auto_broadcast="numpy" />
			<input>
				<port id="0" precision="FP16">
					<dim>384</dim>
					<dim>192</dim>
					<dim>5</dim>
				</port>
				<port id="1" precision="FP16">
					<dim>384</dim>
					<dim>1</dim>
					<dim>1</dim>
				</port>
			</input>
			<output>
				<port id="2" precision="FP16">
					<dim>384</dim>
					<dim>192</dim>
					<dim>5</dim>
				</port>
			</output>
		</layer>
		<layer id="212" name="aten::_weight_norm/Multiply_7/scale" type="Const" version="opset1">
			<data element_type="f16" shape="384, 1, 1" offset="3428044" size="768" />
			<output>
				<port id="0" precision="FP16">
					<dim>384</dim>
					<dim>1</dim>
					<dim>1</dim>
				</port>
			</output>
		</layer>
		<layer id="213" name="aten::_weight_norm/Multiply_7/fq_weights_1" type="Multiply" version="opset1">
			<data auto_broadcast="numpy" />
			<input>
				<port id="0" precision="FP16">
					<dim>384</dim>
					<dim>192</dim>
					<dim>5</dim>
				</port>
				<port id="1" precision="FP16">
					<dim>384</dim>
					<dim>1</dim>
					<dim>1</dim>
				</port>
			</input>
			<output>
				<port id="2" precision="FP16">
					<dim>384</dim>
					<dim>192</dim>
					<dim>5</dim>
				</port>
			</output>
		</layer>
		<layer id="214" name="aten::_weight_norm/Multiply_7/fq_weights_1/convert" type="Convert" version="opset1">
			<data destination_type="f32" />
			<input>
				<port id="0" precision="FP16">
					<dim>384</dim>
					<dim>192</dim>
					<dim>5</dim>
				</port>
			</input>
			<output>
				<port id="1" precision="FP32">
					<dim>384</dim>
					<dim>192</dim>
					<dim>5</dim>
				</port>
			</output>
		</layer>
		<layer id="215" name="aten::_convolution/Convolution_8" type="Convolution" version="opset1">
			<data strides="1" dilations="1" pads_begin="2" pads_end="2" auto_pad="explicit" />
			<input>
				<port id="0" precision="FP32">
					<dim>-1</dim>
					<dim>192</dim>
					<dim>-1</dim>
				</port>
				<port id="1" precision="FP32">
					<dim>384</dim>
					<dim>192</dim>
					<dim>5</dim>
				</port>
			</input>
			<output>
				<port id="2" precision="FP32">
					<dim>-1</dim>
					<dim>384</dim>
					<dim>-1</dim>
				</port>
			</output>
		</layer>
		<layer id="216" name="aten::_convolution/Reshape_8" type="Const" version="opset1">
			<data element_type="f32" shape="1, 384, 1" offset="3428812" size="1536" />
			<output>
				<port id="0" precision="FP32">
					<dim>1</dim>
					<dim>384</dim>
					<dim>1</dim>
				</port>
			</output>
		</layer>
		<layer id="217" name="aten::_convolution/Add_8" type="Add" version="opset1">
			<data auto_broadcast="numpy" />
			<input>
				<port id="0" precision="FP32">
					<dim>-1</dim>
					<dim>384</dim>
					<dim>-1</dim>
				</port>
				<port id="1" precision="FP32">
					<dim>1</dim>
					<dim>384</dim>
					<dim>1</dim>
				</port>
			</input>
			<output>
				<port id="2" precision="FP32" names="388,x_in.7">
					<dim>-1</dim>
					<dim>384</dim>
					<dim>-1</dim>
				</port>
			</output>
		</layer>
		<layer id="218" name="Constant_832785" type="Const" version="opset1">
			<data element_type="i64" shape="1" offset="2982596" size="8" />
			<output>
				<port id="0" precision="I64">
					<dim>1</dim>
				</port>
			</output>
		</layer>
		<layer id="219" name="Constant_832787" type="Const" version="opset1">
			<data element_type="i64" shape="1" offset="3430348" size="8" />
			<output>
				<port id="0" precision="I64">
					<dim>1</dim>
				</port>
			</output>
		</layer>
		<layer id="220" name="Constant_832789" type="Const" version="opset1">
			<data element_type="i64" shape="1" offset="99864" size="8" />
			<output>
				<port id="0" precision="I64">
					<dim>1</dim>
				</port>
			</output>
		</layer>
		<layer id="221" name="Constant_832783" type="Const" version="opset1">
			<data element_type="i64" shape="1" offset="99864" size="8" />
			<output>
				<port id="0" precision="I64">
					<dim>1</dim>
				</port>
			</output>
		</layer>
		<layer id="222" name="aten::slice/Slice_46" type="Slice" version="opset8">
			<input>
				<port id="0" precision="FP32">
					<dim>-1</dim>
					<dim>6144</dim>
					<dim>-1</dim>
				</port>
				<port id="1" precision="I64">
					<dim>1</dim>
				</port>
				<port id="2" precision="I64">
					<dim>1</dim>
				</port>
				<port id="3" precision="I64">
					<dim>1</dim>
				</port>
				<port id="4" precision="I64">
					<dim>1</dim>
				</port>
			</input>
			<output>
				<port id="5" precision="FP32" names="398,403,g_l.7">
					<dim>-1</dim>
					<dim>384</dim>
					<dim>-1</dim>
				</port>
			</output>
		</layer>
		<layer id="223" name="aten::add/Add_9" type="Add" version="opset1">
			<data auto_broadcast="numpy" />
			<input>
				<port id="0" precision="FP32">
					<dim>-1</dim>
					<dim>384</dim>
					<dim>-1</dim>
				</port>
				<port id="1" precision="FP32">
					<dim>-1</dim>
					<dim>384</dim>
					<dim>-1</dim>
				</port>
			</input>
			<output>
				<port id="2" precision="FP32" names="6904,6905,6910,in_act.8">
					<dim>-1</dim>
					<dim>384</dim>
					<dim>-1</dim>
				</port>
			</output>
		</layer>
		<layer id="224" name="aten::slice/Constant_32" type="Const" version="opset1">
			<data element_type="i32" shape="1" offset="99840" size="4" />
			<output>
				<port id="0" precision="I32">
					<dim>1</dim>
				</port>
			</output>
		</layer>
		<layer id="225" name="Constant_832839" type="Const" version="opset1">
			<data element_type="i64" shape="1" offset="2087080" size="8" />
			<output>
				<port id="0" precision="I64">
					<dim>1</dim>
				</port>
			</output>
		</layer>
		<layer id="226" name="Constant_832841" type="Const" version="opset1">
			<data element_type="i64" shape="1" offset="99864" size="8" />
			<output>
				<port id="0" precision="I64">
					<dim>1</dim>
				</port>
			</output>
		</layer>
		<layer id="227" name="Constant_832828" type="Const" version="opset1">
			<data element_type="i64" shape="1" offset="99864" size="8" />
			<output>
				<port id="0" precision="I64">
					<dim>1</dim>
				</port>
			</output>
		</layer>
		<layer id="228" name="aten::slice/Slice_49" type="Slice" version="opset8">
			<input>
				<port id="0" precision="FP32">
					<dim>-1</dim>
					<dim>384</dim>
					<dim>-1</dim>
				</port>
				<port id="1" precision="I32">
					<dim>1</dim>
				</port>
				<port id="2" precision="I64">
					<dim>1</dim>
				</port>
				<port id="3" precision="I64">
					<dim>1</dim>
				</port>
				<port id="4" precision="I64">
					<dim>1</dim>
				</port>
			</input>
			<output>
				<port id="5" precision="FP32" names="6907,6908">
					<dim>-1</dim>
					<dim>192</dim>
					<dim>-1</dim>
				</port>
			</output>
		</layer>
		<layer id="229" name="aten::tanh/Tanh_3" type="Tanh" version="opset1">
			<input>
				<port id="0" precision="FP32">
					<dim>-1</dim>
					<dim>192</dim>
					<dim>-1</dim>
				</port>
			</input>
			<output>
				<port id="1" precision="FP32" names="6909,t_act.8">
					<dim>-1</dim>
					<dim>192</dim>
					<dim>-1</dim>
				</port>
			</output>
		</layer>
		<layer id="230" name="Constant_832879" type="Const" version="opset1">
			<data element_type="i64" shape="1" offset="2087080" size="8" />
			<output>
				<port id="0" precision="I64">
					<dim>1</dim>
				</port>
			</output>
		</layer>
		<layer id="231" name="aten::slice/Constant_37" type="Const" version="opset1">
			<data element_type="i32" shape="1" offset="2087088" size="4" />
			<output>
				<port id="0" precision="I32">
					<dim>1</dim>
				</port>
			</output>
		</layer>
		<layer id="232" name="Constant_832882" type="Const" version="opset1">
			<data element_type="i64" shape="1" offset="99864" size="8" />
			<output>
				<port id="0" precision="I64">
					<dim>1</dim>
				</port>
			</output>
		</layer>
		<layer id="233" name="Constant_832869" type="Const" version="opset1">
			<data element_type="i64" shape="1" offset="99864" size="8" />
			<output>
				<port id="0" precision="I64">
					<dim>1</dim>
				</port>
			</output>
		</layer>
		<layer id="234" name="aten::slice/Slice_52" type="Slice" version="opset8">
			<input>
				<port id="0" precision="FP32">
					<dim>-1</dim>
					<dim>384</dim>
					<dim>-1</dim>
				</port>
				<port id="1" precision="I64">
					<dim>1</dim>
				</port>
				<port id="2" precision="I32">
					<dim>1</dim>
				</port>
				<port id="3" precision="I64">
					<dim>1</dim>
				</port>
				<port id="4" precision="I64">
					<dim>1</dim>
				</port>
			</input>
			<output>
				<port id="5" precision="FP32" names="6912,6913">
					<dim>-1</dim>
					<dim>192</dim>
					<dim>-1</dim>
				</port>
			</output>
		</layer>
		<layer id="235" name="aten::sigmoid/Sigmoid_3" type="Sigmoid" version="opset1">
			<input>
				<port id="0" precision="FP32">
					<dim>-1</dim>
					<dim>192</dim>
					<dim>-1</dim>
				</port>
			</input>
			<output>
				<port id="1" precision="FP32" names="6914,s_act.8">
					<dim>-1</dim>
					<dim>192</dim>
					<dim>-1</dim>
				</port>
			</output>
		</layer>
		<layer id="236" name="aten::mul/Multiply_7" type="Multiply" version="opset1">
			<data auto_broadcast="numpy" />
			<input>
				<port id="0" precision="FP32">
					<dim>-1</dim>
					<dim>192</dim>
					<dim>-1</dim>
				</port>
				<port id="1" precision="FP32">
					<dim>-1</dim>
					<dim>192</dim>
					<dim>-1</dim>
				</port>
			</input>
			<output>
				<port id="2" precision="FP32" names="6915,input.7">
					<dim>-1</dim>
					<dim>192</dim>
					<dim>-1</dim>
				</port>
			</output>
		</layer>
		<layer id="237" name="aten::_weight_norm/Multiply_8" type="Const" version="opset1">
			<data element_type="u8" shape="384, 192, 1" offset="3430356" size="73728" />
			<output>
				<port id="0" precision="U8">
					<dim>384</dim>
					<dim>192</dim>
					<dim>1</dim>
				</port>
			</output>
		</layer>
		<layer id="238" name="Convert_1249844" type="Convert" version="opset1">
			<data destination_type="f16" />
			<input>
				<port id="0" precision="U8">
					<dim>384</dim>
					<dim>192</dim>
					<dim>1</dim>
				</port>
			</input>
			<output>
				<port id="1" precision="FP16">
					<dim>384</dim>
					<dim>192</dim>
					<dim>1</dim>
				</port>
			</output>
		</layer>
		<layer id="239" name="aten::_weight_norm/Multiply_8/zero_point" type="Const" version="opset1">
			<data element_type="u8" shape="384, 1, 1" offset="3504084" size="384" />
			<output>
				<port id="0" precision="U8">
					<dim>384</dim>
					<dim>1</dim>
					<dim>1</dim>
				</port>
			</output>
		</layer>
		<layer id="240" name="Convert_1249847" type="Convert" version="opset1">
			<data destination_type="f16" />
			<input>
				<port id="0" precision="U8">
					<dim>384</dim>
					<dim>1</dim>
					<dim>1</dim>
				</port>
			</input>
			<output>
				<port id="1" precision="FP16">
					<dim>384</dim>
					<dim>1</dim>
					<dim>1</dim>
				</port>
			</output>
		</layer>
		<layer id="241" name="aten::_weight_norm/Multiply_8/zero_point/subtract" type="Subtract" version="opset1">
			<data auto_broadcast="numpy" />
			<input>
				<port id="0" precision="FP16">
					<dim>384</dim>
					<dim>192</dim>
					<dim>1</dim>
				</port>
				<port id="1" precision="FP16">
					<dim>384</dim>
					<dim>1</dim>
					<dim>1</dim>
				</port>
			</input>
			<output>
				<port id="2" precision="FP16">
					<dim>384</dim>
					<dim>192</dim>
					<dim>1</dim>
				</port>
			</output>
		</layer>
		<layer id="242" name="aten::_weight_norm/Multiply_8/scale" type="Const" version="opset1">
			<data element_type="f16" shape="384, 1, 1" offset="3504468" size="768" />
			<output>
				<port id="0" precision="FP16">
					<dim>384</dim>
					<dim>1</dim>
					<dim>1</dim>
				</port>
			</output>
		</layer>
		<layer id="243" name="aten::_weight_norm/Multiply_8/fq_weights_1" type="Multiply" version="opset1">
			<data auto_broadcast="numpy" />
			<input>
				<port id="0" precision="FP16">
					<dim>384</dim>
					<dim>192</dim>
					<dim>1</dim>
				</port>
				<port id="1" precision="FP16">
					<dim>384</dim>
					<dim>1</dim>
					<dim>1</dim>
				</port>
			</input>
			<output>
				<port id="2" precision="FP16">
					<dim>384</dim>
					<dim>192</dim>
					<dim>1</dim>
				</port>
			</output>
		</layer>
		<layer id="244" name="aten::_weight_norm/Multiply_8/fq_weights_1/convert" type="Convert" version="opset1">
			<data destination_type="f32" />
			<input>
				<port id="0" precision="FP16">
					<dim>384</dim>
					<dim>192</dim>
					<dim>1</dim>
				</port>
			</input>
			<output>
				<port id="1" precision="FP32">
					<dim>384</dim>
					<dim>192</dim>
					<dim>1</dim>
				</port>
			</output>
		</layer>
		<layer id="245" name="aten::_convolution/Convolution_9" type="Convolution" version="opset1">
			<data strides="1" dilations="1" pads_begin="0" pads_end="0" auto_pad="explicit" />
			<input>
				<port id="0" precision="FP32">
					<dim>-1</dim>
					<dim>192</dim>
					<dim>-1</dim>
				</port>
				<port id="1" precision="FP32">
					<dim>384</dim>
					<dim>192</dim>
					<dim>1</dim>
				</port>
			</input>
			<output>
				<port id="2" precision="FP32">
					<dim>-1</dim>
					<dim>384</dim>
					<dim>-1</dim>
				</port>
			</output>
		</layer>
		<layer id="246" name="aten::_convolution/Reshape_9" type="Const" version="opset1">
			<data element_type="f32" shape="1, 384, 1" offset="3505236" size="1536" />
			<output>
				<port id="0" precision="FP32">
					<dim>1</dim>
					<dim>384</dim>
					<dim>1</dim>
				</port>
			</output>
		</layer>
		<layer id="247" name="aten::_convolution/Add_9" type="Add" version="opset1">
			<data auto_broadcast="numpy" />
			<input>
				<port id="0" precision="FP32">
					<dim>-1</dim>
					<dim>384</dim>
					<dim>-1</dim>
				</port>
				<port id="1" precision="FP32">
					<dim>1</dim>
					<dim>384</dim>
					<dim>1</dim>
				</port>
			</input>
			<output>
				<port id="2" precision="FP32" names="428,433,451,res_skip_acts.7">
					<dim>-1</dim>
					<dim>384</dim>
					<dim>-1</dim>
				</port>
			</output>
		</layer>
		<layer id="248" name="Constant_833066" type="Const" version="opset1">
			<data element_type="i64" shape="1" offset="2087080" size="8" />
			<output>
				<port id="0" precision="I64">
					<dim>1</dim>
				</port>
			</output>
		</layer>
		<layer id="249" name="Constant_833068" type="Const" version="opset1">
			<data element_type="i64" shape="1" offset="2163508" size="8" />
			<output>
				<port id="0" precision="I64">
					<dim>1</dim>
				</port>
			</output>
		</layer>
		<layer id="250" name="Constant_833070" type="Const" version="opset1">
			<data element_type="i64" shape="1" offset="99864" size="8" />
			<output>
				<port id="0" precision="I64">
					<dim>1</dim>
				</port>
			</output>
		</layer>
		<layer id="251" name="Constant_833064" type="Const" version="opset1">
			<data element_type="i64" shape="1" offset="99864" size="8" />
			<output>
				<port id="0" precision="I64">
					<dim>1</dim>
				</port>
			</output>
		</layer>
		<layer id="252" name="aten::slice/Slice_55" type="Slice" version="opset8">
			<input>
				<port id="0" precision="FP32">
					<dim>-1</dim>
					<dim>384</dim>
					<dim>-1</dim>
				</port>
				<port id="1" precision="I64">
					<dim>1</dim>
				</port>
				<port id="2" precision="I64">
					<dim>1</dim>
				</port>
				<port id="3" precision="I64">
					<dim>1</dim>
				</port>
				<port id="4" precision="I64">
					<dim>1</dim>
				</port>
			</input>
			<output>
				<port id="5" precision="FP32" names="456,461">
					<dim>-1</dim>
					<dim>192</dim>
					<dim>-1</dim>
				</port>
			</output>
		</layer>
		<layer id="253" name="Add_894245" type="Add" version="opset1">
			<data auto_broadcast="numpy" />
			<input>
				<port id="0" precision="FP32">
					<dim>-1</dim>
					<dim>192</dim>
					<dim>-1</dim>
				</port>
				<port id="1" precision="FP32">
					<dim>-1</dim>
					<dim>192</dim>
					<dim>-1</dim>
				</port>
			</input>
			<output>
				<port id="2" precision="FP32">
					<dim>-1</dim>
					<dim>192</dim>
					<dim>-1</dim>
				</port>
			</output>
		</layer>
		<layer id="254" name="Constant_833013" type="Const" version="opset1">
			<data element_type="i64" shape="1" offset="99852" size="8" />
			<output>
				<port id="0" precision="I64">
					<dim>1</dim>
				</port>
			</output>
		</layer>
		<layer id="255" name="Constant_833015" type="Const" version="opset1">
			<data element_type="i64" shape="1" offset="2087080" size="8" />
			<output>
				<port id="0" precision="I64">
					<dim>1</dim>
				</port>
			</output>
		</layer>
		<layer id="256" name="Constant_833017" type="Const" version="opset1">
			<data element_type="i64" shape="1" offset="99864" size="8" />
			<output>
				<port id="0" precision="I64">
					<dim>1</dim>
				</port>
			</output>
		</layer>
		<layer id="257" name="Constant_833011" type="Const" version="opset1">
			<data element_type="i64" shape="1" offset="99864" size="8" />
			<output>
				<port id="0" precision="I64">
					<dim>1</dim>
				</port>
			</output>
		</layer>
		<layer id="258" name="aten::slice/Slice_58" type="Slice" version="opset8">
			<input>
				<port id="0" precision="FP32">
					<dim>-1</dim>
					<dim>384</dim>
					<dim>-1</dim>
				</port>
				<port id="1" precision="I64">
					<dim>1</dim>
				</port>
				<port id="2" precision="I64">
					<dim>1</dim>
				</port>
				<port id="3" precision="I64">
					<dim>1</dim>
				</port>
				<port id="4" precision="I64">
					<dim>1</dim>
				</port>
			</input>
			<output>
				<port id="5" precision="FP32" names="438,443,res_acts.7">
					<dim>-1</dim>
					<dim>192</dim>
					<dim>-1</dim>
				</port>
			</output>
		</layer>
		<layer id="259" name="aten::add/Add_11" type="Add" version="opset1">
			<data auto_broadcast="numpy" />
			<input>
				<port id="0" precision="FP32">
					<dim>-1</dim>
					<dim>192</dim>
					<dim>-1</dim>
				</port>
				<port id="1" precision="FP32">
					<dim>-1</dim>
					<dim>192</dim>
					<dim>-1</dim>
				</port>
			</input>
			<output>
				<port id="2" precision="FP32" names="445">
					<dim>-1</dim>
					<dim>192</dim>
					<dim>-1</dim>
				</port>
			</output>
		</layer>
		<layer id="260" name="aten::mul/Multiply_8" type="Multiply" version="opset1">
			<data auto_broadcast="numpy" />
			<input>
				<port id="0" precision="FP32">
					<dim>-1</dim>
					<dim>192</dim>
					<dim>-1</dim>
				</port>
				<port id="1" precision="FP32">
					<dim>-1</dim>
					<dim>1</dim>
					<dim>-1</dim>
				</port>
			</input>
			<output>
				<port id="2" precision="FP32" names="446,x.11">
					<dim>-1</dim>
					<dim>192</dim>
					<dim>-1</dim>
				</port>
			</output>
		</layer>
		<layer id="261" name="aten::_weight_norm/Multiply_9" type="Const" version="opset1">
			<data element_type="u8" shape="384, 192, 5" offset="3506772" size="368640" />
			<output>
				<port id="0" precision="U8">
					<dim>384</dim>
					<dim>192</dim>
					<dim>5</dim>
				</port>
			</output>
		</layer>
		<layer id="262" name="Convert_1033604" type="Convert" version="opset1">
			<data destination_type="f16" />
			<input>
				<port id="0" precision="U8">
					<dim>384</dim>
					<dim>192</dim>
					<dim>5</dim>
				</port>
			</input>
			<output>
				<port id="1" precision="FP16">
					<dim>384</dim>
					<dim>192</dim>
					<dim>5</dim>
				</port>
			</output>
		</layer>
		<layer id="263" name="aten::_weight_norm/Multiply_9/zero_point" type="Const" version="opset1">
			<data element_type="u8" shape="384, 1, 1" offset="3875412" size="384" />
			<output>
				<port id="0" precision="U8">
					<dim>384</dim>
					<dim>1</dim>
					<dim>1</dim>
				</port>
			</output>
		</layer>
		<layer id="264" name="Convert_1033607" type="Convert" version="opset1">
			<data destination_type="f16" />
			<input>
				<port id="0" precision="U8">
					<dim>384</dim>
					<dim>1</dim>
					<dim>1</dim>
				</port>
			</input>
			<output>
				<port id="1" precision="FP16">
					<dim>384</dim>
					<dim>1</dim>
					<dim>1</dim>
				</port>
			</output>
		</layer>
		<layer id="265" name="aten::_weight_norm/Multiply_9/zero_point/subtract" type="Subtract" version="opset1">
			<data auto_broadcast="numpy" />
			<input>
				<port id="0" precision="FP16">
					<dim>384</dim>
					<dim>192</dim>
					<dim>5</dim>
				</port>
				<port id="1" precision="FP16">
					<dim>384</dim>
					<dim>1</dim>
					<dim>1</dim>
				</port>
			</input>
			<output>
				<port id="2" precision="FP16">
					<dim>384</dim>
					<dim>192</dim>
					<dim>5</dim>
				</port>
			</output>
		</layer>
		<layer id="266" name="aten::_weight_norm/Multiply_9/scale" type="Const" version="opset1">
			<data element_type="f16" shape="384, 1, 1" offset="3875796" size="768" />
			<output>
				<port id="0" precision="FP16">
					<dim>384</dim>
					<dim>1</dim>
					<dim>1</dim>
				</port>
			</output>
		</layer>
		<layer id="267" name="aten::_weight_norm/Multiply_9/fq_weights_1" type="Multiply" version="opset1">
			<data auto_broadcast="numpy" />
			<input>
				<port id="0" precision="FP16">
					<dim>384</dim>
					<dim>192</dim>
					<dim>5</dim>
				</port>
				<port id="1" precision="FP16">
					<dim>384</dim>
					<dim>1</dim>
					<dim>1</dim>
				</port>
			</input>
			<output>
				<port id="2" precision="FP16">
					<dim>384</dim>
					<dim>192</dim>
					<dim>5</dim>
				</port>
			</output>
		</layer>
		<layer id="268" name="aten::_weight_norm/Multiply_9/fq_weights_1/convert" type="Convert" version="opset1">
			<data destination_type="f32" />
			<input>
				<port id="0" precision="FP16">
					<dim>384</dim>
					<dim>192</dim>
					<dim>5</dim>
				</port>
			</input>
			<output>
				<port id="1" precision="FP32">
					<dim>384</dim>
					<dim>192</dim>
					<dim>5</dim>
				</port>
			</output>
		</layer>
		<layer id="269" name="aten::_convolution/Convolution_10" type="Convolution" version="opset1">
			<data strides="1" dilations="1" pads_begin="2" pads_end="2" auto_pad="explicit" />
			<input>
				<port id="0" precision="FP32">
					<dim>-1</dim>
					<dim>192</dim>
					<dim>-1</dim>
				</port>
				<port id="1" precision="FP32">
					<dim>384</dim>
					<dim>192</dim>
					<dim>5</dim>
				</port>
			</input>
			<output>
				<port id="2" precision="FP32">
					<dim>-1</dim>
					<dim>384</dim>
					<dim>-1</dim>
				</port>
			</output>
		</layer>
		<layer id="270" name="aten::_convolution/Reshape_10" type="Const" version="opset1">
			<data element_type="f32" shape="1, 384, 1" offset="3876564" size="1536" />
			<output>
				<port id="0" precision="FP32">
					<dim>1</dim>
					<dim>384</dim>
					<dim>1</dim>
				</port>
			</output>
		</layer>
		<layer id="271" name="aten::_convolution/Add_10" type="Add" version="opset1">
			<data auto_broadcast="numpy" />
			<input>
				<port id="0" precision="FP32">
					<dim>-1</dim>
					<dim>384</dim>
					<dim>-1</dim>
				</port>
				<port id="1" precision="FP32">
					<dim>1</dim>
					<dim>384</dim>
					<dim>1</dim>
				</port>
			</input>
			<output>
				<port id="2" precision="FP32" names="483,x_in.9">
					<dim>-1</dim>
					<dim>384</dim>
					<dim>-1</dim>
				</port>
			</output>
		</layer>
		<layer id="272" name="Constant_833201" type="Const" version="opset1">
			<data element_type="i64" shape="1" offset="3430348" size="8" />
			<output>
				<port id="0" precision="I64">
					<dim>1</dim>
				</port>
			</output>
		</layer>
		<layer id="273" name="Constant_833203" type="Const" version="opset1">
			<data element_type="i64" shape="1" offset="3878100" size="8" />
			<output>
				<port id="0" precision="I64">
					<dim>1</dim>
				</port>
			</output>
		</layer>
		<layer id="274" name="Constant_833205" type="Const" version="opset1">
			<data element_type="i64" shape="1" offset="99864" size="8" />
			<output>
				<port id="0" precision="I64">
					<dim>1</dim>
				</port>
			</output>
		</layer>
		<layer id="275" name="Constant_833199" type="Const" version="opset1">
			<data element_type="i64" shape="1" offset="99864" size="8" />
			<output>
				<port id="0" precision="I64">
					<dim>1</dim>
				</port>
			</output>
		</layer>
		<layer id="276" name="aten::slice/Slice_61" type="Slice" version="opset8">
			<input>
				<port id="0" precision="FP32">
					<dim>-1</dim>
					<dim>6144</dim>
					<dim>-1</dim>
				</port>
				<port id="1" precision="I64">
					<dim>1</dim>
				</port>
				<port id="2" precision="I64">
					<dim>1</dim>
				</port>
				<port id="3" precision="I64">
					<dim>1</dim>
				</port>
				<port id="4" precision="I64">
					<dim>1</dim>
				</port>
			</input>
			<output>
				<port id="5" precision="FP32" names="493,498,g_l.9">
					<dim>-1</dim>
					<dim>384</dim>
					<dim>-1</dim>
				</port>
			</output>
		</layer>
		<layer id="277" name="aten::add/Add_12" type="Add" version="opset1">
			<data auto_broadcast="numpy" />
			<input>
				<port id="0" precision="FP32">
					<dim>-1</dim>
					<dim>384</dim>
					<dim>-1</dim>
				</port>
				<port id="1" precision="FP32">
					<dim>-1</dim>
					<dim>384</dim>
					<dim>-1</dim>
				</port>
			</input>
			<output>
				<port id="2" precision="FP32" names="6921,6922,6927,in_act.10">
					<dim>-1</dim>
					<dim>384</dim>
					<dim>-1</dim>
				</port>
			</output>
		</layer>
		<layer id="278" name="aten::slice/Constant_42" type="Const" version="opset1">
			<data element_type="i32" shape="1" offset="99840" size="4" />
			<output>
				<port id="0" precision="I32">
					<dim>1</dim>
				</port>
			</output>
		</layer>
		<layer id="279" name="Constant_833255" type="Const" version="opset1">
			<data element_type="i64" shape="1" offset="2087080" size="8" />
			<output>
				<port id="0" precision="I64">
					<dim>1</dim>
				</port>
			</output>
		</layer>
		<layer id="280" name="Constant_833257" type="Const" version="opset1">
			<data element_type="i64" shape="1" offset="99864" size="8" />
			<output>
				<port id="0" precision="I64">
					<dim>1</dim>
				</port>
			</output>
		</layer>
		<layer id="281" name="Constant_833244" type="Const" version="opset1">
			<data element_type="i64" shape="1" offset="99864" size="8" />
			<output>
				<port id="0" precision="I64">
					<dim>1</dim>
				</port>
			</output>
		</layer>
		<layer id="282" name="aten::slice/Slice_64" type="Slice" version="opset8">
			<input>
				<port id="0" precision="FP32">
					<dim>-1</dim>
					<dim>384</dim>
					<dim>-1</dim>
				</port>
				<port id="1" precision="I32">
					<dim>1</dim>
				</port>
				<port id="2" precision="I64">
					<dim>1</dim>
				</port>
				<port id="3" precision="I64">
					<dim>1</dim>
				</port>
				<port id="4" precision="I64">
					<dim>1</dim>
				</port>
			</input>
			<output>
				<port id="5" precision="FP32" names="6924,6925">
					<dim>-1</dim>
					<dim>192</dim>
					<dim>-1</dim>
				</port>
			</output>
		</layer>
		<layer id="283" name="aten::tanh/Tanh_4" type="Tanh" version="opset1">
			<input>
				<port id="0" precision="FP32">
					<dim>-1</dim>
					<dim>192</dim>
					<dim>-1</dim>
				</port>
			</input>
			<output>
				<port id="1" precision="FP32" names="6926,t_act.10">
					<dim>-1</dim>
					<dim>192</dim>
					<dim>-1</dim>
				</port>
			</output>
		</layer>
		<layer id="284" name="Constant_833295" type="Const" version="opset1">
			<data element_type="i64" shape="1" offset="2087080" size="8" />
			<output>
				<port id="0" precision="I64">
					<dim>1</dim>
				</port>
			</output>
		</layer>
		<layer id="285" name="aten::slice/Constant_47" type="Const" version="opset1">
			<data element_type="i32" shape="1" offset="2087088" size="4" />
			<output>
				<port id="0" precision="I32">
					<dim>1</dim>
				</port>
			</output>
		</layer>
		<layer id="286" name="Constant_833298" type="Const" version="opset1">
			<data element_type="i64" shape="1" offset="99864" size="8" />
			<output>
				<port id="0" precision="I64">
					<dim>1</dim>
				</port>
			</output>
		</layer>
		<layer id="287" name="Constant_833285" type="Const" version="opset1">
			<data element_type="i64" shape="1" offset="99864" size="8" />
			<output>
				<port id="0" precision="I64">
					<dim>1</dim>
				</port>
			</output>
		</layer>
		<layer id="288" name="aten::slice/Slice_67" type="Slice" version="opset8">
			<input>
				<port id="0" precision="FP32">
					<dim>-1</dim>
					<dim>384</dim>
					<dim>-1</dim>
				</port>
				<port id="1" precision="I64">
					<dim>1</dim>
				</port>
				<port id="2" precision="I32">
					<dim>1</dim>
				</port>
				<port id="3" precision="I64">
					<dim>1</dim>
				</port>
				<port id="4" precision="I64">
					<dim>1</dim>
				</port>
			</input>
			<output>
				<port id="5" precision="FP32" names="6929,6930">
					<dim>-1</dim>
					<dim>192</dim>
					<dim>-1</dim>
				</port>
			</output>
		</layer>
		<layer id="289" name="aten::sigmoid/Sigmoid_4" type="Sigmoid" version="opset1">
			<input>
				<port id="0" precision="FP32">
					<dim>-1</dim>
					<dim>192</dim>
					<dim>-1</dim>
				</port>
			</input>
			<output>
				<port id="1" precision="FP32" names="6931,s_act.10">
					<dim>-1</dim>
					<dim>192</dim>
					<dim>-1</dim>
				</port>
			</output>
		</layer>
		<layer id="290" name="aten::mul/Multiply_9" type="Multiply" version="opset1">
			<data auto_broadcast="numpy" />
			<input>
				<port id="0" precision="FP32">
					<dim>-1</dim>
					<dim>192</dim>
					<dim>-1</dim>
				</port>
				<port id="1" precision="FP32">
					<dim>-1</dim>
					<dim>192</dim>
					<dim>-1</dim>
				</port>
			</input>
			<output>
				<port id="2" precision="FP32" names="6932,input.9">
					<dim>-1</dim>
					<dim>192</dim>
					<dim>-1</dim>
				</port>
			</output>
		</layer>
		<layer id="291" name="aten::_weight_norm/Multiply_10" type="Const" version="opset1">
			<data element_type="u8" shape="384, 192, 1" offset="3878108" size="73728" />
			<output>
				<port id="0" precision="U8">
					<dim>384</dim>
					<dim>192</dim>
					<dim>1</dim>
				</port>
			</output>
		</layer>
		<layer id="292" name="Convert_1254084" type="Convert" version="opset1">
			<data destination_type="f16" />
			<input>
				<port id="0" precision="U8">
					<dim>384</dim>
					<dim>192</dim>
					<dim>1</dim>
				</port>
			</input>
			<output>
				<port id="1" precision="FP16">
					<dim>384</dim>
					<dim>192</dim>
					<dim>1</dim>
				</port>
			</output>
		</layer>
		<layer id="293" name="aten::_weight_norm/Multiply_10/zero_point" type="Const" version="opset1">
			<data element_type="u8" shape="384, 1, 1" offset="3951836" size="384" />
			<output>
				<port id="0" precision="U8">
					<dim>384</dim>
					<dim>1</dim>
					<dim>1</dim>
				</port>
			</output>
		</layer>
		<layer id="294" name="Convert_1254087" type="Convert" version="opset1">
			<data destination_type="f16" />
			<input>
				<port id="0" precision="U8">
					<dim>384</dim>
					<dim>1</dim>
					<dim>1</dim>
				</port>
			</input>
			<output>
				<port id="1" precision="FP16">
					<dim>384</dim>
					<dim>1</dim>
					<dim>1</dim>
				</port>
			</output>
		</layer>
		<layer id="295" name="aten::_weight_norm/Multiply_10/zero_point/subtract" type="Subtract" version="opset1">
			<data auto_broadcast="numpy" />
			<input>
				<port id="0" precision="FP16">
					<dim>384</dim>
					<dim>192</dim>
					<dim>1</dim>
				</port>
				<port id="1" precision="FP16">
					<dim>384</dim>
					<dim>1</dim>
					<dim>1</dim>
				</port>
			</input>
			<output>
				<port id="2" precision="FP16">
					<dim>384</dim>
					<dim>192</dim>
					<dim>1</dim>
				</port>
			</output>
		</layer>
		<layer id="296" name="aten::_weight_norm/Multiply_10/scale" type="Const" version="opset1">
			<data element_type="f16" shape="384, 1, 1" offset="3952220" size="768" />
			<output>
				<port id="0" precision="FP16">
					<dim>384</dim>
					<dim>1</dim>
					<dim>1</dim>
				</port>
			</output>
		</layer>
		<layer id="297" name="aten::_weight_norm/Multiply_10/fq_weights_1" type="Multiply" version="opset1">
			<data auto_broadcast="numpy" />
			<input>
				<port id="0" precision="FP16">
					<dim>384</dim>
					<dim>192</dim>
					<dim>1</dim>
				</port>
				<port id="1" precision="FP16">
					<dim>384</dim>
					<dim>1</dim>
					<dim>1</dim>
				</port>
			</input>
			<output>
				<port id="2" precision="FP16">
					<dim>384</dim>
					<dim>192</dim>
					<dim>1</dim>
				</port>
			</output>
		</layer>
		<layer id="298" name="aten::_weight_norm/Multiply_10/fq_weights_1/convert" type="Convert" version="opset1">
			<data destination_type="f32" />
			<input>
				<port id="0" precision="FP16">
					<dim>384</dim>
					<dim>192</dim>
					<dim>1</dim>
				</port>
			</input>
			<output>
				<port id="1" precision="FP32">
					<dim>384</dim>
					<dim>192</dim>
					<dim>1</dim>
				</port>
			</output>
		</layer>
		<layer id="299" name="aten::_convolution/Convolution_11" type="Convolution" version="opset1">
			<data strides="1" dilations="1" pads_begin="0" pads_end="0" auto_pad="explicit" />
			<input>
				<port id="0" precision="FP32">
					<dim>-1</dim>
					<dim>192</dim>
					<dim>-1</dim>
				</port>
				<port id="1" precision="FP32">
					<dim>384</dim>
					<dim>192</dim>
					<dim>1</dim>
				</port>
			</input>
			<output>
				<port id="2" precision="FP32">
					<dim>-1</dim>
					<dim>384</dim>
					<dim>-1</dim>
				</port>
			</output>
		</layer>
		<layer id="300" name="aten::_convolution/Reshape_11" type="Const" version="opset1">
			<data element_type="f32" shape="1, 384, 1" offset="3952988" size="1536" />
			<output>
				<port id="0" precision="FP32">
					<dim>1</dim>
					<dim>384</dim>
					<dim>1</dim>
				</port>
			</output>
		</layer>
		<layer id="301" name="aten::_convolution/Add_11" type="Add" version="opset1">
			<data auto_broadcast="numpy" />
			<input>
				<port id="0" precision="FP32">
					<dim>-1</dim>
					<dim>384</dim>
					<dim>-1</dim>
				</port>
				<port id="1" precision="FP32">
					<dim>1</dim>
					<dim>384</dim>
					<dim>1</dim>
				</port>
			</input>
			<output>
				<port id="2" precision="FP32" names="523,528,546,res_skip_acts.9">
					<dim>-1</dim>
					<dim>384</dim>
					<dim>-1</dim>
				</port>
			</output>
		</layer>
		<layer id="302" name="Constant_833482" type="Const" version="opset1">
			<data element_type="i64" shape="1" offset="2087080" size="8" />
			<output>
				<port id="0" precision="I64">
					<dim>1</dim>
				</port>
			</output>
		</layer>
		<layer id="303" name="Constant_833484" type="Const" version="opset1">
			<data element_type="i64" shape="1" offset="2163508" size="8" />
			<output>
				<port id="0" precision="I64">
					<dim>1</dim>
				</port>
			</output>
		</layer>
		<layer id="304" name="Constant_833486" type="Const" version="opset1">
			<data element_type="i64" shape="1" offset="99864" size="8" />
			<output>
				<port id="0" precision="I64">
					<dim>1</dim>
				</port>
			</output>
		</layer>
		<layer id="305" name="Constant_833480" type="Const" version="opset1">
			<data element_type="i64" shape="1" offset="99864" size="8" />
			<output>
				<port id="0" precision="I64">
					<dim>1</dim>
				</port>
			</output>
		</layer>
		<layer id="306" name="aten::slice/Slice_70" type="Slice" version="opset8">
			<input>
				<port id="0" precision="FP32">
					<dim>-1</dim>
					<dim>384</dim>
					<dim>-1</dim>
				</port>
				<port id="1" precision="I64">
					<dim>1</dim>
				</port>
				<port id="2" precision="I64">
					<dim>1</dim>
				</port>
				<port id="3" precision="I64">
					<dim>1</dim>
				</port>
				<port id="4" precision="I64">
					<dim>1</dim>
				</port>
			</input>
			<output>
				<port id="5" precision="FP32" names="551,556">
					<dim>-1</dim>
					<dim>192</dim>
					<dim>-1</dim>
				</port>
			</output>
		</layer>
		<layer id="307" name="Add_894517" type="Add" version="opset1">
			<data auto_broadcast="numpy" />
			<input>
				<port id="0" precision="FP32">
					<dim>-1</dim>
					<dim>192</dim>
					<dim>-1</dim>
				</port>
				<port id="1" precision="FP32">
					<dim>-1</dim>
					<dim>192</dim>
					<dim>-1</dim>
				</port>
			</input>
			<output>
				<port id="2" precision="FP32">
					<dim>-1</dim>
					<dim>192</dim>
					<dim>-1</dim>
				</port>
			</output>
		</layer>
		<layer id="308" name="Constant_833429" type="Const" version="opset1">
			<data element_type="i64" shape="1" offset="99852" size="8" />
			<output>
				<port id="0" precision="I64">
					<dim>1</dim>
				</port>
			</output>
		</layer>
		<layer id="309" name="Constant_833431" type="Const" version="opset1">
			<data element_type="i64" shape="1" offset="2087080" size="8" />
			<output>
				<port id="0" precision="I64">
					<dim>1</dim>
				</port>
			</output>
		</layer>
		<layer id="310" name="Constant_833433" type="Const" version="opset1">
			<data element_type="i64" shape="1" offset="99864" size="8" />
			<output>
				<port id="0" precision="I64">
					<dim>1</dim>
				</port>
			</output>
		</layer>
		<layer id="311" name="Constant_833427" type="Const" version="opset1">
			<data element_type="i64" shape="1" offset="99864" size="8" />
			<output>
				<port id="0" precision="I64">
					<dim>1</dim>
				</port>
			</output>
		</layer>
		<layer id="312" name="aten::slice/Slice_73" type="Slice" version="opset8">
			<input>
				<port id="0" precision="FP32">
					<dim>-1</dim>
					<dim>384</dim>
					<dim>-1</dim>
				</port>
				<port id="1" precision="I64">
					<dim>1</dim>
				</port>
				<port id="2" precision="I64">
					<dim>1</dim>
				</port>
				<port id="3" precision="I64">
					<dim>1</dim>
				</port>
				<port id="4" precision="I64">
					<dim>1</dim>
				</port>
			</input>
			<output>
				<port id="5" precision="FP32" names="533,538,res_acts.9">
					<dim>-1</dim>
					<dim>192</dim>
					<dim>-1</dim>
				</port>
			</output>
		</layer>
		<layer id="313" name="aten::add/Add_14" type="Add" version="opset1">
			<data auto_broadcast="numpy" />
			<input>
				<port id="0" precision="FP32">
					<dim>-1</dim>
					<dim>192</dim>
					<dim>-1</dim>
				</port>
				<port id="1" precision="FP32">
					<dim>-1</dim>
					<dim>192</dim>
					<dim>-1</dim>
				</port>
			</input>
			<output>
				<port id="2" precision="FP32" names="540">
					<dim>-1</dim>
					<dim>192</dim>
					<dim>-1</dim>
				</port>
			</output>
		</layer>
		<layer id="314" name="aten::mul/Multiply_10" type="Multiply" version="opset1">
			<data auto_broadcast="numpy" />
			<input>
				<port id="0" precision="FP32">
					<dim>-1</dim>
					<dim>192</dim>
					<dim>-1</dim>
				</port>
				<port id="1" precision="FP32">
					<dim>-1</dim>
					<dim>1</dim>
					<dim>-1</dim>
				</port>
			</input>
			<output>
				<port id="2" precision="FP32" names="541,x.13">
					<dim>-1</dim>
					<dim>192</dim>
					<dim>-1</dim>
				</port>
			</output>
		</layer>
		<layer id="315" name="aten::_weight_norm/Multiply_11" type="Const" version="opset1">
			<data element_type="u8" shape="384, 192, 5" offset="3954524" size="368640" />
			<output>
				<port id="0" precision="U8">
					<dim>384</dim>
					<dim>192</dim>
					<dim>5</dim>
				</port>
			</output>
		</layer>
		<layer id="316" name="Convert_1037844" type="Convert" version="opset1">
			<data destination_type="f16" />
			<input>
				<port id="0" precision="U8">
					<dim>384</dim>
					<dim>192</dim>
					<dim>5</dim>
				</port>
			</input>
			<output>
				<port id="1" precision="FP16">
					<dim>384</dim>
					<dim>192</dim>
					<dim>5</dim>
				</port>
			</output>
		</layer>
		<layer id="317" name="aten::_weight_norm/Multiply_11/zero_point" type="Const" version="opset1">
			<data element_type="u8" shape="384, 1, 1" offset="4323164" size="384" />
			<output>
				<port id="0" precision="U8">
					<dim>384</dim>
					<dim>1</dim>
					<dim>1</dim>
				</port>
			</output>
		</layer>
		<layer id="318" name="Convert_1037847" type="Convert" version="opset1">
			<data destination_type="f16" />
			<input>
				<port id="0" precision="U8">
					<dim>384</dim>
					<dim>1</dim>
					<dim>1</dim>
				</port>
			</input>
			<output>
				<port id="1" precision="FP16">
					<dim>384</dim>
					<dim>1</dim>
					<dim>1</dim>
				</port>
			</output>
		</layer>
		<layer id="319" name="aten::_weight_norm/Multiply_11/zero_point/subtract" type="Subtract" version="opset1">
			<data auto_broadcast="numpy" />
			<input>
				<port id="0" precision="FP16">
					<dim>384</dim>
					<dim>192</dim>
					<dim>5</dim>
				</port>
				<port id="1" precision="FP16">
					<dim>384</dim>
					<dim>1</dim>
					<dim>1</dim>
				</port>
			</input>
			<output>
				<port id="2" precision="FP16">
					<dim>384</dim>
					<dim>192</dim>
					<dim>5</dim>
				</port>
			</output>
		</layer>
		<layer id="320" name="aten::_weight_norm/Multiply_11/scale" type="Const" version="opset1">
			<data element_type="f16" shape="384, 1, 1" offset="4323548" size="768" />
			<output>
				<port id="0" precision="FP16">
					<dim>384</dim>
					<dim>1</dim>
					<dim>1</dim>
				</port>
			</output>
		</layer>
		<layer id="321" name="aten::_weight_norm/Multiply_11/fq_weights_1" type="Multiply" version="opset1">
			<data auto_broadcast="numpy" />
			<input>
				<port id="0" precision="FP16">
					<dim>384</dim>
					<dim>192</dim>
					<dim>5</dim>
				</port>
				<port id="1" precision="FP16">
					<dim>384</dim>
					<dim>1</dim>
					<dim>1</dim>
				</port>
			</input>
			<output>
				<port id="2" precision="FP16">
					<dim>384</dim>
					<dim>192</dim>
					<dim>5</dim>
				</port>
			</output>
		</layer>
		<layer id="322" name="aten::_weight_norm/Multiply_11/fq_weights_1/convert" type="Convert" version="opset1">
			<data destination_type="f32" />
			<input>
				<port id="0" precision="FP16">
					<dim>384</dim>
					<dim>192</dim>
					<dim>5</dim>
				</port>
			</input>
			<output>
				<port id="1" precision="FP32">
					<dim>384</dim>
					<dim>192</dim>
					<dim>5</dim>
				</port>
			</output>
		</layer>
		<layer id="323" name="aten::_convolution/Convolution_12" type="Convolution" version="opset1">
			<data strides="1" dilations="1" pads_begin="2" pads_end="2" auto_pad="explicit" />
			<input>
				<port id="0" precision="FP32">
					<dim>-1</dim>
					<dim>192</dim>
					<dim>-1</dim>
				</port>
				<port id="1" precision="FP32">
					<dim>384</dim>
					<dim>192</dim>
					<dim>5</dim>
				</port>
			</input>
			<output>
				<port id="2" precision="FP32">
					<dim>-1</dim>
					<dim>384</dim>
					<dim>-1</dim>
				</port>
			</output>
		</layer>
		<layer id="324" name="aten::_convolution/Reshape_12" type="Const" version="opset1">
			<data element_type="f32" shape="1, 384, 1" offset="4324316" size="1536" />
			<output>
				<port id="0" precision="FP32">
					<dim>1</dim>
					<dim>384</dim>
					<dim>1</dim>
				</port>
			</output>
		</layer>
		<layer id="325" name="aten::_convolution/Add_12" type="Add" version="opset1">
			<data auto_broadcast="numpy" />
			<input>
				<port id="0" precision="FP32">
					<dim>-1</dim>
					<dim>384</dim>
					<dim>-1</dim>
				</port>
				<port id="1" precision="FP32">
					<dim>1</dim>
					<dim>384</dim>
					<dim>1</dim>
				</port>
			</input>
			<output>
				<port id="2" precision="FP32" names="578,x_in.11">
					<dim>-1</dim>
					<dim>384</dim>
					<dim>-1</dim>
				</port>
			</output>
		</layer>
		<layer id="326" name="Constant_833617" type="Const" version="opset1">
			<data element_type="i64" shape="1" offset="3878100" size="8" />
			<output>
				<port id="0" precision="I64">
					<dim>1</dim>
				</port>
			</output>
		</layer>
		<layer id="327" name="Constant_833619" type="Const" version="opset1">
			<data element_type="i64" shape="1" offset="4325852" size="8" />
			<output>
				<port id="0" precision="I64">
					<dim>1</dim>
				</port>
			</output>
		</layer>
		<layer id="328" name="Constant_833621" type="Const" version="opset1">
			<data element_type="i64" shape="1" offset="99864" size="8" />
			<output>
				<port id="0" precision="I64">
					<dim>1</dim>
				</port>
			</output>
		</layer>
		<layer id="329" name="Constant_833615" type="Const" version="opset1">
			<data element_type="i64" shape="1" offset="99864" size="8" />
			<output>
				<port id="0" precision="I64">
					<dim>1</dim>
				</port>
			</output>
		</layer>
		<layer id="330" name="aten::slice/Slice_76" type="Slice" version="opset8">
			<input>
				<port id="0" precision="FP32">
					<dim>-1</dim>
					<dim>6144</dim>
					<dim>-1</dim>
				</port>
				<port id="1" precision="I64">
					<dim>1</dim>
				</port>
				<port id="2" precision="I64">
					<dim>1</dim>
				</port>
				<port id="3" precision="I64">
					<dim>1</dim>
				</port>
				<port id="4" precision="I64">
					<dim>1</dim>
				</port>
			</input>
			<output>
				<port id="5" precision="FP32" names="588,593,g_l.11">
					<dim>-1</dim>
					<dim>384</dim>
					<dim>-1</dim>
				</port>
			</output>
		</layer>
		<layer id="331" name="aten::add/Add_15" type="Add" version="opset1">
			<data auto_broadcast="numpy" />
			<input>
				<port id="0" precision="FP32">
					<dim>-1</dim>
					<dim>384</dim>
					<dim>-1</dim>
				</port>
				<port id="1" precision="FP32">
					<dim>-1</dim>
					<dim>384</dim>
					<dim>-1</dim>
				</port>
			</input>
			<output>
				<port id="2" precision="FP32" names="6938,6939,6944,in_act.12">
					<dim>-1</dim>
					<dim>384</dim>
					<dim>-1</dim>
				</port>
			</output>
		</layer>
		<layer id="332" name="aten::slice/Constant_52" type="Const" version="opset1">
			<data element_type="i32" shape="1" offset="99840" size="4" />
			<output>
				<port id="0" precision="I32">
					<dim>1</dim>
				</port>
			</output>
		</layer>
		<layer id="333" name="Constant_833671" type="Const" version="opset1">
			<data element_type="i64" shape="1" offset="2087080" size="8" />
			<output>
				<port id="0" precision="I64">
					<dim>1</dim>
				</port>
			</output>
		</layer>
		<layer id="334" name="Constant_833673" type="Const" version="opset1">
			<data element_type="i64" shape="1" offset="99864" size="8" />
			<output>
				<port id="0" precision="I64">
					<dim>1</dim>
				</port>
			</output>
		</layer>
		<layer id="335" name="Constant_833660" type="Const" version="opset1">
			<data element_type="i64" shape="1" offset="99864" size="8" />
			<output>
				<port id="0" precision="I64">
					<dim>1</dim>
				</port>
			</output>
		</layer>
		<layer id="336" name="aten::slice/Slice_79" type="Slice" version="opset8">
			<input>
				<port id="0" precision="FP32">
					<dim>-1</dim>
					<dim>384</dim>
					<dim>-1</dim>
				</port>
				<port id="1" precision="I32">
					<dim>1</dim>
				</port>
				<port id="2" precision="I64">
					<dim>1</dim>
				</port>
				<port id="3" precision="I64">
					<dim>1</dim>
				</port>
				<port id="4" precision="I64">
					<dim>1</dim>
				</port>
			</input>
			<output>
				<port id="5" precision="FP32" names="6941,6942">
					<dim>-1</dim>
					<dim>192</dim>
					<dim>-1</dim>
				</port>
			</output>
		</layer>
		<layer id="337" name="aten::tanh/Tanh_5" type="Tanh" version="opset1">
			<input>
				<port id="0" precision="FP32">
					<dim>-1</dim>
					<dim>192</dim>
					<dim>-1</dim>
				</port>
			</input>
			<output>
				<port id="1" precision="FP32" names="6943,t_act.12">
					<dim>-1</dim>
					<dim>192</dim>
					<dim>-1</dim>
				</port>
			</output>
		</layer>
		<layer id="338" name="Constant_833711" type="Const" version="opset1">
			<data element_type="i64" shape="1" offset="2087080" size="8" />
			<output>
				<port id="0" precision="I64">
					<dim>1</dim>
				</port>
			</output>
		</layer>
		<layer id="339" name="aten::slice/Constant_57" type="Const" version="opset1">
			<data element_type="i32" shape="1" offset="2087088" size="4" />
			<output>
				<port id="0" precision="I32">
					<dim>1</dim>
				</port>
			</output>
		</layer>
		<layer id="340" name="Constant_833714" type="Const" version="opset1">
			<data element_type="i64" shape="1" offset="99864" size="8" />
			<output>
				<port id="0" precision="I64">
					<dim>1</dim>
				</port>
			</output>
		</layer>
		<layer id="341" name="Constant_833701" type="Const" version="opset1">
			<data element_type="i64" shape="1" offset="99864" size="8" />
			<output>
				<port id="0" precision="I64">
					<dim>1</dim>
				</port>
			</output>
		</layer>
		<layer id="342" name="aten::slice/Slice_82" type="Slice" version="opset8">
			<input>
				<port id="0" precision="FP32">
					<dim>-1</dim>
					<dim>384</dim>
					<dim>-1</dim>
				</port>
				<port id="1" precision="I64">
					<dim>1</dim>
				</port>
				<port id="2" precision="I32">
					<dim>1</dim>
				</port>
				<port id="3" precision="I64">
					<dim>1</dim>
				</port>
				<port id="4" precision="I64">
					<dim>1</dim>
				</port>
			</input>
			<output>
				<port id="5" precision="FP32" names="6946,6947">
					<dim>-1</dim>
					<dim>192</dim>
					<dim>-1</dim>
				</port>
			</output>
		</layer>
		<layer id="343" name="aten::sigmoid/Sigmoid_5" type="Sigmoid" version="opset1">
			<input>
				<port id="0" precision="FP32">
					<dim>-1</dim>
					<dim>192</dim>
					<dim>-1</dim>
				</port>
			</input>
			<output>
				<port id="1" precision="FP32" names="6948,s_act.12">
					<dim>-1</dim>
					<dim>192</dim>
					<dim>-1</dim>
				</port>
			</output>
		</layer>
		<layer id="344" name="aten::mul/Multiply_11" type="Multiply" version="opset1">
			<data auto_broadcast="numpy" />
			<input>
				<port id="0" precision="FP32">
					<dim>-1</dim>
					<dim>192</dim>
					<dim>-1</dim>
				</port>
				<port id="1" precision="FP32">
					<dim>-1</dim>
					<dim>192</dim>
					<dim>-1</dim>
				</port>
			</input>
			<output>
				<port id="2" precision="FP32" names="6949,input.11">
					<dim>-1</dim>
					<dim>192</dim>
					<dim>-1</dim>
				</port>
			</output>
		</layer>
		<layer id="345" name="aten::_weight_norm/Multiply_12" type="Const" version="opset1">
			<data element_type="u8" shape="384, 192, 1" offset="4325860" size="73728" />
			<output>
				<port id="0" precision="U8">
					<dim>384</dim>
					<dim>192</dim>
					<dim>1</dim>
				</port>
			</output>
		</layer>
		<layer id="346" name="Convert_1258324" type="Convert" version="opset1">
			<data destination_type="f16" />
			<input>
				<port id="0" precision="U8">
					<dim>384</dim>
					<dim>192</dim>
					<dim>1</dim>
				</port>
			</input>
			<output>
				<port id="1" precision="FP16">
					<dim>384</dim>
					<dim>192</dim>
					<dim>1</dim>
				</port>
			</output>
		</layer>
		<layer id="347" name="aten::_weight_norm/Multiply_12/zero_point" type="Const" version="opset1">
			<data element_type="u8" shape="384, 1, 1" offset="4399588" size="384" />
			<output>
				<port id="0" precision="U8">
					<dim>384</dim>
					<dim>1</dim>
					<dim>1</dim>
				</port>
			</output>
		</layer>
		<layer id="348" name="Convert_1258327" type="Convert" version="opset1">
			<data destination_type="f16" />
			<input>
				<port id="0" precision="U8">
					<dim>384</dim>
					<dim>1</dim>
					<dim>1</dim>
				</port>
			</input>
			<output>
				<port id="1" precision="FP16">
					<dim>384</dim>
					<dim>1</dim>
					<dim>1</dim>
				</port>
			</output>
		</layer>
		<layer id="349" name="aten::_weight_norm/Multiply_12/zero_point/subtract" type="Subtract" version="opset1">
			<data auto_broadcast="numpy" />
			<input>
				<port id="0" precision="FP16">
					<dim>384</dim>
					<dim>192</dim>
					<dim>1</dim>
				</port>
				<port id="1" precision="FP16">
					<dim>384</dim>
					<dim>1</dim>
					<dim>1</dim>
				</port>
			</input>
			<output>
				<port id="2" precision="FP16">
					<dim>384</dim>
					<dim>192</dim>
					<dim>1</dim>
				</port>
			</output>
		</layer>
		<layer id="350" name="aten::_weight_norm/Multiply_12/scale" type="Const" version="opset1">
			<data element_type="f16" shape="384, 1, 1" offset="4399972" size="768" />
			<output>
				<port id="0" precision="FP16">
					<dim>384</dim>
					<dim>1</dim>
					<dim>1</dim>
				</port>
			</output>
		</layer>
		<layer id="351" name="aten::_weight_norm/Multiply_12/fq_weights_1" type="Multiply" version="opset1">
			<data auto_broadcast="numpy" />
			<input>
				<port id="0" precision="FP16">
					<dim>384</dim>
					<dim>192</dim>
					<dim>1</dim>
				</port>
				<port id="1" precision="FP16">
					<dim>384</dim>
					<dim>1</dim>
					<dim>1</dim>
				</port>
			</input>
			<output>
				<port id="2" precision="FP16">
					<dim>384</dim>
					<dim>192</dim>
					<dim>1</dim>
				</port>
			</output>
		</layer>
		<layer id="352" name="aten::_weight_norm/Multiply_12/fq_weights_1/convert" type="Convert" version="opset1">
			<data destination_type="f32" />
			<input>
				<port id="0" precision="FP16">
					<dim>384</dim>
					<dim>192</dim>
					<dim>1</dim>
				</port>
			</input>
			<output>
				<port id="1" precision="FP32">
					<dim>384</dim>
					<dim>192</dim>
					<dim>1</dim>
				</port>
			</output>
		</layer>
		<layer id="353" name="aten::_convolution/Convolution_13" type="Convolution" version="opset1">
			<data strides="1" dilations="1" pads_begin="0" pads_end="0" auto_pad="explicit" />
			<input>
				<port id="0" precision="FP32">
					<dim>-1</dim>
					<dim>192</dim>
					<dim>-1</dim>
				</port>
				<port id="1" precision="FP32">
					<dim>384</dim>
					<dim>192</dim>
					<dim>1</dim>
				</port>
			</input>
			<output>
				<port id="2" precision="FP32">
					<dim>-1</dim>
					<dim>384</dim>
					<dim>-1</dim>
				</port>
			</output>
		</layer>
		<layer id="354" name="aten::_convolution/Reshape_13" type="Const" version="opset1">
			<data element_type="f32" shape="1, 384, 1" offset="4400740" size="1536" />
			<output>
				<port id="0" precision="FP32">
					<dim>1</dim>
					<dim>384</dim>
					<dim>1</dim>
				</port>
			</output>
		</layer>
		<layer id="355" name="aten::_convolution/Add_13" type="Add" version="opset1">
			<data auto_broadcast="numpy" />
			<input>
				<port id="0" precision="FP32">
					<dim>-1</dim>
					<dim>384</dim>
					<dim>-1</dim>
				</port>
				<port id="1" precision="FP32">
					<dim>1</dim>
					<dim>384</dim>
					<dim>1</dim>
				</port>
			</input>
			<output>
				<port id="2" precision="FP32" names="618,623,641,res_skip_acts.11">
					<dim>-1</dim>
					<dim>384</dim>
					<dim>-1</dim>
				</port>
			</output>
		</layer>
		<layer id="356" name="Constant_833898" type="Const" version="opset1">
			<data element_type="i64" shape="1" offset="2087080" size="8" />
			<output>
				<port id="0" precision="I64">
					<dim>1</dim>
				</port>
			</output>
		</layer>
		<layer id="357" name="Constant_833900" type="Const" version="opset1">
			<data element_type="i64" shape="1" offset="2163508" size="8" />
			<output>
				<port id="0" precision="I64">
					<dim>1</dim>
				</port>
			</output>
		</layer>
		<layer id="358" name="Constant_833902" type="Const" version="opset1">
			<data element_type="i64" shape="1" offset="99864" size="8" />
			<output>
				<port id="0" precision="I64">
					<dim>1</dim>
				</port>
			</output>
		</layer>
		<layer id="359" name="Constant_833896" type="Const" version="opset1">
			<data element_type="i64" shape="1" offset="99864" size="8" />
			<output>
				<port id="0" precision="I64">
					<dim>1</dim>
				</port>
			</output>
		</layer>
		<layer id="360" name="aten::slice/Slice_85" type="Slice" version="opset8">
			<input>
				<port id="0" precision="FP32">
					<dim>-1</dim>
					<dim>384</dim>
					<dim>-1</dim>
				</port>
				<port id="1" precision="I64">
					<dim>1</dim>
				</port>
				<port id="2" precision="I64">
					<dim>1</dim>
				</port>
				<port id="3" precision="I64">
					<dim>1</dim>
				</port>
				<port id="4" precision="I64">
					<dim>1</dim>
				</port>
			</input>
			<output>
				<port id="5" precision="FP32" names="646,651">
					<dim>-1</dim>
					<dim>192</dim>
					<dim>-1</dim>
				</port>
			</output>
		</layer>
		<layer id="361" name="Add_894855" type="Add" version="opset1">
			<data auto_broadcast="numpy" />
			<input>
				<port id="0" precision="FP32">
					<dim>-1</dim>
					<dim>192</dim>
					<dim>-1</dim>
				</port>
				<port id="1" precision="FP32">
					<dim>-1</dim>
					<dim>192</dim>
					<dim>-1</dim>
				</port>
			</input>
			<output>
				<port id="2" precision="FP32">
					<dim>-1</dim>
					<dim>192</dim>
					<dim>-1</dim>
				</port>
			</output>
		</layer>
		<layer id="362" name="Constant_833845" type="Const" version="opset1">
			<data element_type="i64" shape="1" offset="99852" size="8" />
			<output>
				<port id="0" precision="I64">
					<dim>1</dim>
				</port>
			</output>
		</layer>
		<layer id="363" name="Constant_833847" type="Const" version="opset1">
			<data element_type="i64" shape="1" offset="2087080" size="8" />
			<output>
				<port id="0" precision="I64">
					<dim>1</dim>
				</port>
			</output>
		</layer>
		<layer id="364" name="Constant_833849" type="Const" version="opset1">
			<data element_type="i64" shape="1" offset="99864" size="8" />
			<output>
				<port id="0" precision="I64">
					<dim>1</dim>
				</port>
			</output>
		</layer>
		<layer id="365" name="Constant_833843" type="Const" version="opset1">
			<data element_type="i64" shape="1" offset="99864" size="8" />
			<output>
				<port id="0" precision="I64">
					<dim>1</dim>
				</port>
			</output>
		</layer>
		<layer id="366" name="aten::slice/Slice_88" type="Slice" version="opset8">
			<input>
				<port id="0" precision="FP32">
					<dim>-1</dim>
					<dim>384</dim>
					<dim>-1</dim>
				</port>
				<port id="1" precision="I64">
					<dim>1</dim>
				</port>
				<port id="2" precision="I64">
					<dim>1</dim>
				</port>
				<port id="3" precision="I64">
					<dim>1</dim>
				</port>
				<port id="4" precision="I64">
					<dim>1</dim>
				</port>
			</input>
			<output>
				<port id="5" precision="FP32" names="628,633,res_acts.11">
					<dim>-1</dim>
					<dim>192</dim>
					<dim>-1</dim>
				</port>
			</output>
		</layer>
		<layer id="367" name="aten::add/Add_17" type="Add" version="opset1">
			<data auto_broadcast="numpy" />
			<input>
				<port id="0" precision="FP32">
					<dim>-1</dim>
					<dim>192</dim>
					<dim>-1</dim>
				</port>
				<port id="1" precision="FP32">
					<dim>-1</dim>
					<dim>192</dim>
					<dim>-1</dim>
				</port>
			</input>
			<output>
				<port id="2" precision="FP32" names="635">
					<dim>-1</dim>
					<dim>192</dim>
					<dim>-1</dim>
				</port>
			</output>
		</layer>
		<layer id="368" name="aten::mul/Multiply_12" type="Multiply" version="opset1">
			<data auto_broadcast="numpy" />
			<input>
				<port id="0" precision="FP32">
					<dim>-1</dim>
					<dim>192</dim>
					<dim>-1</dim>
				</port>
				<port id="1" precision="FP32">
					<dim>-1</dim>
					<dim>1</dim>
					<dim>-1</dim>
				</port>
			</input>
			<output>
				<port id="2" precision="FP32" names="636,x.15">
					<dim>-1</dim>
					<dim>192</dim>
					<dim>-1</dim>
				</port>
			</output>
		</layer>
		<layer id="369" name="aten::_weight_norm/Multiply_13" type="Const" version="opset1">
			<data element_type="u8" shape="384, 192, 5" offset="4402276" size="368640" />
			<output>
				<port id="0" precision="U8">
					<dim>384</dim>
					<dim>192</dim>
					<dim>5</dim>
				</port>
			</output>
		</layer>
		<layer id="370" name="Convert_1042084" type="Convert" version="opset1">
			<data destination_type="f16" />
			<input>
				<port id="0" precision="U8">
					<dim>384</dim>
					<dim>192</dim>
					<dim>5</dim>
				</port>
			</input>
			<output>
				<port id="1" precision="FP16">
					<dim>384</dim>
					<dim>192</dim>
					<dim>5</dim>
				</port>
			</output>
		</layer>
		<layer id="371" name="aten::_weight_norm/Multiply_13/zero_point" type="Const" version="opset1">
			<data element_type="u8" shape="384, 1, 1" offset="4770916" size="384" />
			<output>
				<port id="0" precision="U8">
					<dim>384</dim>
					<dim>1</dim>
					<dim>1</dim>
				</port>
			</output>
		</layer>
		<layer id="372" name="Convert_1042087" type="Convert" version="opset1">
			<data destination_type="f16" />
			<input>
				<port id="0" precision="U8">
					<dim>384</dim>
					<dim>1</dim>
					<dim>1</dim>
				</port>
			</input>
			<output>
				<port id="1" precision="FP16">
					<dim>384</dim>
					<dim>1</dim>
					<dim>1</dim>
				</port>
			</output>
		</layer>
		<layer id="373" name="aten::_weight_norm/Multiply_13/zero_point/subtract" type="Subtract" version="opset1">
			<data auto_broadcast="numpy" />
			<input>
				<port id="0" precision="FP16">
					<dim>384</dim>
					<dim>192</dim>
					<dim>5</dim>
				</port>
				<port id="1" precision="FP16">
					<dim>384</dim>
					<dim>1</dim>
					<dim>1</dim>
				</port>
			</input>
			<output>
				<port id="2" precision="FP16">
					<dim>384</dim>
					<dim>192</dim>
					<dim>5</dim>
				</port>
			</output>
		</layer>
		<layer id="374" name="aten::_weight_norm/Multiply_13/scale" type="Const" version="opset1">
			<data element_type="f16" shape="384, 1, 1" offset="4771300" size="768" />
			<output>
				<port id="0" precision="FP16">
					<dim>384</dim>
					<dim>1</dim>
					<dim>1</dim>
				</port>
			</output>
		</layer>
		<layer id="375" name="aten::_weight_norm/Multiply_13/fq_weights_1" type="Multiply" version="opset1">
			<data auto_broadcast="numpy" />
			<input>
				<port id="0" precision="FP16">
					<dim>384</dim>
					<dim>192</dim>
					<dim>5</dim>
				</port>
				<port id="1" precision="FP16">
					<dim>384</dim>
					<dim>1</dim>
					<dim>1</dim>
				</port>
			</input>
			<output>
				<port id="2" precision="FP16">
					<dim>384</dim>
					<dim>192</dim>
					<dim>5</dim>
				</port>
			</output>
		</layer>
		<layer id="376" name="aten::_weight_norm/Multiply_13/fq_weights_1/convert" type="Convert" version="opset1">
			<data destination_type="f32" />
			<input>
				<port id="0" precision="FP16">
					<dim>384</dim>
					<dim>192</dim>
					<dim>5</dim>
				</port>
			</input>
			<output>
				<port id="1" precision="FP32">
					<dim>384</dim>
					<dim>192</dim>
					<dim>5</dim>
				</port>
			</output>
		</layer>
		<layer id="377" name="aten::_convolution/Convolution_14" type="Convolution" version="opset1">
			<data strides="1" dilations="1" pads_begin="2" pads_end="2" auto_pad="explicit" />
			<input>
				<port id="0" precision="FP32">
					<dim>-1</dim>
					<dim>192</dim>
					<dim>-1</dim>
				</port>
				<port id="1" precision="FP32">
					<dim>384</dim>
					<dim>192</dim>
					<dim>5</dim>
				</port>
			</input>
			<output>
				<port id="2" precision="FP32">
					<dim>-1</dim>
					<dim>384</dim>
					<dim>-1</dim>
				</port>
			</output>
		</layer>
		<layer id="378" name="aten::_convolution/Reshape_14" type="Const" version="opset1">
			<data element_type="f32" shape="1, 384, 1" offset="4772068" size="1536" />
			<output>
				<port id="0" precision="FP32">
					<dim>1</dim>
					<dim>384</dim>
					<dim>1</dim>
				</port>
			</output>
		</layer>
		<layer id="379" name="aten::_convolution/Add_14" type="Add" version="opset1">
			<data auto_broadcast="numpy" />
			<input>
				<port id="0" precision="FP32">
					<dim>-1</dim>
					<dim>384</dim>
					<dim>-1</dim>
				</port>
				<port id="1" precision="FP32">
					<dim>1</dim>
					<dim>384</dim>
					<dim>1</dim>
				</port>
			</input>
			<output>
				<port id="2" precision="FP32" names="673,x_in.13">
					<dim>-1</dim>
					<dim>384</dim>
					<dim>-1</dim>
				</port>
			</output>
		</layer>
		<layer id="380" name="Constant_834033" type="Const" version="opset1">
			<data element_type="i64" shape="1" offset="4325852" size="8" />
			<output>
				<port id="0" precision="I64">
					<dim>1</dim>
				</port>
			</output>
		</layer>
		<layer id="381" name="Constant_834035" type="Const" version="opset1">
			<data element_type="i64" shape="1" offset="4773604" size="8" />
			<output>
				<port id="0" precision="I64">
					<dim>1</dim>
				</port>
			</output>
		</layer>
		<layer id="382" name="Constant_834037" type="Const" version="opset1">
			<data element_type="i64" shape="1" offset="99864" size="8" />
			<output>
				<port id="0" precision="I64">
					<dim>1</dim>
				</port>
			</output>
		</layer>
		<layer id="383" name="Constant_834031" type="Const" version="opset1">
			<data element_type="i64" shape="1" offset="99864" size="8" />
			<output>
				<port id="0" precision="I64">
					<dim>1</dim>
				</port>
			</output>
		</layer>
		<layer id="384" name="aten::slice/Slice_91" type="Slice" version="opset8">
			<input>
				<port id="0" precision="FP32">
					<dim>-1</dim>
					<dim>6144</dim>
					<dim>-1</dim>
				</port>
				<port id="1" precision="I64">
					<dim>1</dim>
				</port>
				<port id="2" precision="I64">
					<dim>1</dim>
				</port>
				<port id="3" precision="I64">
					<dim>1</dim>
				</port>
				<port id="4" precision="I64">
					<dim>1</dim>
				</port>
			</input>
			<output>
				<port id="5" precision="FP32" names="683,688,g_l.13">
					<dim>-1</dim>
					<dim>384</dim>
					<dim>-1</dim>
				</port>
			</output>
		</layer>
		<layer id="385" name="aten::add/Add_18" type="Add" version="opset1">
			<data auto_broadcast="numpy" />
			<input>
				<port id="0" precision="FP32">
					<dim>-1</dim>
					<dim>384</dim>
					<dim>-1</dim>
				</port>
				<port id="1" precision="FP32">
					<dim>-1</dim>
					<dim>384</dim>
					<dim>-1</dim>
				</port>
			</input>
			<output>
				<port id="2" precision="FP32" names="6955,6956,6961,in_act.14">
					<dim>-1</dim>
					<dim>384</dim>
					<dim>-1</dim>
				</port>
			</output>
		</layer>
		<layer id="386" name="aten::slice/Constant_62" type="Const" version="opset1">
			<data element_type="i32" shape="1" offset="99840" size="4" />
			<output>
				<port id="0" precision="I32">
					<dim>1</dim>
				</port>
			</output>
		</layer>
		<layer id="387" name="Constant_834087" type="Const" version="opset1">
			<data element_type="i64" shape="1" offset="2087080" size="8" />
			<output>
				<port id="0" precision="I64">
					<dim>1</dim>
				</port>
			</output>
		</layer>
		<layer id="388" name="Constant_834089" type="Const" version="opset1">
			<data element_type="i64" shape="1" offset="99864" size="8" />
			<output>
				<port id="0" precision="I64">
					<dim>1</dim>
				</port>
			</output>
		</layer>
		<layer id="389" name="Constant_834076" type="Const" version="opset1">
			<data element_type="i64" shape="1" offset="99864" size="8" />
			<output>
				<port id="0" precision="I64">
					<dim>1</dim>
				</port>
			</output>
		</layer>
		<layer id="390" name="aten::slice/Slice_94" type="Slice" version="opset8">
			<input>
				<port id="0" precision="FP32">
					<dim>-1</dim>
					<dim>384</dim>
					<dim>-1</dim>
				</port>
				<port id="1" precision="I32">
					<dim>1</dim>
				</port>
				<port id="2" precision="I64">
					<dim>1</dim>
				</port>
				<port id="3" precision="I64">
					<dim>1</dim>
				</port>
				<port id="4" precision="I64">
					<dim>1</dim>
				</port>
			</input>
			<output>
				<port id="5" precision="FP32" names="6958,6959">
					<dim>-1</dim>
					<dim>192</dim>
					<dim>-1</dim>
				</port>
			</output>
		</layer>
		<layer id="391" name="aten::tanh/Tanh_6" type="Tanh" version="opset1">
			<input>
				<port id="0" precision="FP32">
					<dim>-1</dim>
					<dim>192</dim>
					<dim>-1</dim>
				</port>
			</input>
			<output>
				<port id="1" precision="FP32" names="6960,t_act.14">
					<dim>-1</dim>
					<dim>192</dim>
					<dim>-1</dim>
				</port>
			</output>
		</layer>
		<layer id="392" name="Constant_834127" type="Const" version="opset1">
			<data element_type="i64" shape="1" offset="2087080" size="8" />
			<output>
				<port id="0" precision="I64">
					<dim>1</dim>
				</port>
			</output>
		</layer>
		<layer id="393" name="aten::slice/Constant_67" type="Const" version="opset1">
			<data element_type="i32" shape="1" offset="2087088" size="4" />
			<output>
				<port id="0" precision="I32">
					<dim>1</dim>
				</port>
			</output>
		</layer>
		<layer id="394" name="Constant_834130" type="Const" version="opset1">
			<data element_type="i64" shape="1" offset="99864" size="8" />
			<output>
				<port id="0" precision="I64">
					<dim>1</dim>
				</port>
			</output>
		</layer>
		<layer id="395" name="Constant_834117" type="Const" version="opset1">
			<data element_type="i64" shape="1" offset="99864" size="8" />
			<output>
				<port id="0" precision="I64">
					<dim>1</dim>
				</port>
			</output>
		</layer>
		<layer id="396" name="aten::slice/Slice_97" type="Slice" version="opset8">
			<input>
				<port id="0" precision="FP32">
					<dim>-1</dim>
					<dim>384</dim>
					<dim>-1</dim>
				</port>
				<port id="1" precision="I64">
					<dim>1</dim>
				</port>
				<port id="2" precision="I32">
					<dim>1</dim>
				</port>
				<port id="3" precision="I64">
					<dim>1</dim>
				</port>
				<port id="4" precision="I64">
					<dim>1</dim>
				</port>
			</input>
			<output>
				<port id="5" precision="FP32" names="6963,6964">
					<dim>-1</dim>
					<dim>192</dim>
					<dim>-1</dim>
				</port>
			</output>
		</layer>
		<layer id="397" name="aten::sigmoid/Sigmoid_6" type="Sigmoid" version="opset1">
			<input>
				<port id="0" precision="FP32">
					<dim>-1</dim>
					<dim>192</dim>
					<dim>-1</dim>
				</port>
			</input>
			<output>
				<port id="1" precision="FP32" names="6965,s_act.14">
					<dim>-1</dim>
					<dim>192</dim>
					<dim>-1</dim>
				</port>
			</output>
		</layer>
		<layer id="398" name="aten::mul/Multiply_13" type="Multiply" version="opset1">
			<data auto_broadcast="numpy" />
			<input>
				<port id="0" precision="FP32">
					<dim>-1</dim>
					<dim>192</dim>
					<dim>-1</dim>
				</port>
				<port id="1" precision="FP32">
					<dim>-1</dim>
					<dim>192</dim>
					<dim>-1</dim>
				</port>
			</input>
			<output>
				<port id="2" precision="FP32" names="6966,input.13">
					<dim>-1</dim>
					<dim>192</dim>
					<dim>-1</dim>
				</port>
			</output>
		</layer>
		<layer id="399" name="aten::_weight_norm/Multiply_14" type="Const" version="opset1">
			<data element_type="u8" shape="384, 192, 1" offset="4773612" size="73728" />
			<output>
				<port id="0" precision="U8">
					<dim>384</dim>
					<dim>192</dim>
					<dim>1</dim>
				</port>
			</output>
		</layer>
		<layer id="400" name="Convert_1262564" type="Convert" version="opset1">
			<data destination_type="f16" />
			<input>
				<port id="0" precision="U8">
					<dim>384</dim>
					<dim>192</dim>
					<dim>1</dim>
				</port>
			</input>
			<output>
				<port id="1" precision="FP16">
					<dim>384</dim>
					<dim>192</dim>
					<dim>1</dim>
				</port>
			</output>
		</layer>
		<layer id="401" name="aten::_weight_norm/Multiply_14/zero_point" type="Const" version="opset1">
			<data element_type="u8" shape="384, 1, 1" offset="4847340" size="384" />
			<output>
				<port id="0" precision="U8">
					<dim>384</dim>
					<dim>1</dim>
					<dim>1</dim>
				</port>
			</output>
		</layer>
		<layer id="402" name="Convert_1262567" type="Convert" version="opset1">
			<data destination_type="f16" />
			<input>
				<port id="0" precision="U8">
					<dim>384</dim>
					<dim>1</dim>
					<dim>1</dim>
				</port>
			</input>
			<output>
				<port id="1" precision="FP16">
					<dim>384</dim>
					<dim>1</dim>
					<dim>1</dim>
				</port>
			</output>
		</layer>
		<layer id="403" name="aten::_weight_norm/Multiply_14/zero_point/subtract" type="Subtract" version="opset1">
			<data auto_broadcast="numpy" />
			<input>
				<port id="0" precision="FP16">
					<dim>384</dim>
					<dim>192</dim>
					<dim>1</dim>
				</port>
				<port id="1" precision="FP16">
					<dim>384</dim>
					<dim>1</dim>
					<dim>1</dim>
				</port>
			</input>
			<output>
				<port id="2" precision="FP16">
					<dim>384</dim>
					<dim>192</dim>
					<dim>1</dim>
				</port>
			</output>
		</layer>
		<layer id="404" name="aten::_weight_norm/Multiply_14/scale" type="Const" version="opset1">
			<data element_type="f16" shape="384, 1, 1" offset="4847724" size="768" />
			<output>
				<port id="0" precision="FP16">
					<dim>384</dim>
					<dim>1</dim>
					<dim>1</dim>
				</port>
			</output>
		</layer>
		<layer id="405" name="aten::_weight_norm/Multiply_14/fq_weights_1" type="Multiply" version="opset1">
			<data auto_broadcast="numpy" />
			<input>
				<port id="0" precision="FP16">
					<dim>384</dim>
					<dim>192</dim>
					<dim>1</dim>
				</port>
				<port id="1" precision="FP16">
					<dim>384</dim>
					<dim>1</dim>
					<dim>1</dim>
				</port>
			</input>
			<output>
				<port id="2" precision="FP16">
					<dim>384</dim>
					<dim>192</dim>
					<dim>1</dim>
				</port>
			</output>
		</layer>
		<layer id="406" name="aten::_weight_norm/Multiply_14/fq_weights_1/convert" type="Convert" version="opset1">
			<data destination_type="f32" />
			<input>
				<port id="0" precision="FP16">
					<dim>384</dim>
					<dim>192</dim>
					<dim>1</dim>
				</port>
			</input>
			<output>
				<port id="1" precision="FP32">
					<dim>384</dim>
					<dim>192</dim>
					<dim>1</dim>
				</port>
			</output>
		</layer>
…
		<edge from-layer="3157" from-port="0" to-layer="3158" to-port="1" />
		<edge from-layer="3158" from-port="2" to-layer="3167" to-port="0" />
		<edge from-layer="3159" from-port="0" to-layer="3160" to-port="0" />
		<edge from-layer="3160" from-port="1" to-layer="3163" to-port="0" />
		<edge from-layer="3161" from-port="0" to-layer="3162" to-port="0" />
		<edge from-layer="3162" from-port="1" to-layer="3163" to-port="1" />
		<edge from-layer="3163" from-port="2" to-layer="3165" to-port="0" />
		<edge from-layer="3164" from-port="0" to-layer="3165" to-port="1" />
		<edge from-layer="3165" from-port="2" to-layer="3166" to-port="0" />
		<edge from-layer="3166" from-port="1" to-layer="3167" to-port="1" />
		<edge from-layer="3167" from-port="2" to-layer="3169" to-port="0" />
		<edge from-layer="3168" from-port="0" to-layer="3169" to-port="1" />
		<edge from-layer="3169" from-port="2" to-layer="3171" to-port="0" />
		<edge from-layer="3170" from-port="0" to-layer="3171" to-port="1" />
		<edge from-layer="3171" from-port="2" to-layer="3180" to-port="0" />
		<edge from-layer="3172" from-port="0" to-layer="3173" to-port="0" />
		<edge from-layer="3173" from-port="1" to-layer="3176" to-port="0" />
		<edge from-layer="3174" from-port="0" to-layer="3175" to-port="0" />
		<edge from-layer="3175" from-port="1" to-layer="3176" to-port="1" />
		<edge from-layer="3176" from-port="2" to-layer="3178" to-port="0" />
		<edge from-layer="3177" from-port="0" to-layer="3178" to-port="1" />
		<edge from-layer="3178" from-port="2" to-layer="3179" to-port="0" />
		<edge from-layer="3179" from-port="1" to-layer="3180" to-port="1" />
		<edge from-layer="3180" from-port="2" to-layer="3182" to-port="0" />
		<edge from-layer="3181" from-port="0" to-layer="3182" to-port="1" />
		<edge from-layer="3182" from-port="2" to-layer="3183" to-port="0" />
		<edge from-layer="3183" from-port="2" to-layer="3210" to-port="1" />
		<edge from-layer="3183" from-port="2" to-layer="3185" to-port="0" />
		<edge from-layer="3184" from-port="0" to-layer="3185" to-port="1" />
		<edge from-layer="3185" from-port="2" to-layer="3194" to-port="0" />
		<edge from-layer="3186" from-port="0" to-layer="3187" to-port="0" />
		<edge from-layer="3187" from-port="1" to-layer="3190" to-port="0" />
		<edge from-layer="3188" from-port="0" to-layer="3189" to-port="0" />
		<edge from-layer="3189" from-port="1" to-layer="3190" to-port="1" />
		<edge from-layer="3190" from-port="2" to-layer="3192" to-port="0" />
		<edge from-layer="3191" from-port="0" to-layer="3192" to-port="1" />
		<edge from-layer="3192" from-port="2" to-layer="3193" to-port="0" />
		<edge from-layer="3193" from-port="1" to-layer="3194" to-port="1" />
		<edge from-layer="3194" from-port="2" to-layer="3196" to-port="0" />
		<edge from-layer="3195" from-port="0" to-layer="3196" to-port="1" />
		<edge from-layer="3196" from-port="2" to-layer="3198" to-port="0" />
		<edge from-layer="3197" from-port="0" to-layer="3198" to-port="1" />
		<edge from-layer="3198" from-port="2" to-layer="3207" to-port="0" />
		<edge from-layer="3199" from-port="0" to-layer="3200" to-port="0" />
		<edge from-layer="3200" from-port="1" to-layer="3203" to-port="0" />
		<edge from-layer="3201" from-port="0" to-layer="3202" to-port="0" />
		<edge from-layer="3202" from-port="1" to-layer="3203" to-port="1" />
		<edge from-layer="3203" from-port="2" to-layer="3205" to-port="0" />
		<edge from-layer="3204" from-port="0" to-layer="3205" to-port="1" />
		<edge from-layer="3205" from-port="2" to-layer="3206" to-port="0" />
		<edge from-layer="3206" from-port="1" to-layer="3207" to-port="1" />
		<edge from-layer="3207" from-port="2" to-layer="3209" to-port="0" />
		<edge from-layer="3208" from-port="0" to-layer="3209" to-port="1" />
		<edge from-layer="3209" from-port="2" to-layer="3210" to-port="0" />
		<edge from-layer="3210" from-port="2" to-layer="3211" to-port="1" />
		<edge from-layer="3211" from-port="2" to-layer="3291" to-port="0" />
		<edge from-layer="3212" from-port="0" to-layer="3213" to-port="0" />
		<edge from-layer="3213" from-port="1" to-layer="3216" to-port="0" />
		<edge from-layer="3214" from-port="0" to-layer="3215" to-port="0" />
		<edge from-layer="3215" from-port="1" to-layer="3216" to-port="1" />
		<edge from-layer="3216" from-port="2" to-layer="3218" to-port="0" />
		<edge from-layer="3217" from-port="0" to-layer="3218" to-port="1" />
		<edge from-layer="3218" from-port="2" to-layer="3219" to-port="0" />
		<edge from-layer="3219" from-port="1" to-layer="3220" to-port="1" />
		<edge from-layer="3220" from-port="2" to-layer="3222" to-port="0" />
		<edge from-layer="3221" from-port="0" to-layer="3222" to-port="1" />
		<edge from-layer="3222" from-port="2" to-layer="3224" to-port="0" />
		<edge from-layer="3223" from-port="0" to-layer="3224" to-port="1" />
		<edge from-layer="3224" from-port="2" to-layer="3233" to-port="0" />
		<edge from-layer="3225" from-port="0" to-layer="3226" to-port="0" />
		<edge from-layer="3226" from-port="1" to-layer="3229" to-port="0" />
		<edge from-layer="3227" from-port="0" to-layer="3228" to-port="0" />
		<edge from-layer="3228" from-port="1" to-layer="3229" to-port="1" />
		<edge from-layer="3229" from-port="2" to-layer="3231" to-port="0" />
		<edge from-layer="3230" from-port="0" to-layer="3231" to-port="1" />
		<edge from-layer="3231" from-port="2" to-layer="3232" to-port="0" />
		<edge from-layer="3232" from-port="1" to-layer="3233" to-port="1" />
		<edge from-layer="3233" from-port="2" to-layer="3235" to-port="0" />
		<edge from-layer="3234" from-port="0" to-layer="3235" to-port="1" />
		<edge from-layer="3235" from-port="2" to-layer="3236" to-port="0" />
		<edge from-layer="3236" from-port="2" to-layer="3238" to-port="0" />
		<edge from-layer="3236" from-port="2" to-layer="3263" to-port="1" />
		<edge from-layer="3237" from-port="0" to-layer="3238" to-port="1" />
		<edge from-layer="3238" from-port="2" to-layer="3247" to-port="0" />
		<edge from-layer="3239" from-port="0" to-layer="3240" to-port="0" />
		<edge from-layer="3240" from-port="1" to-layer="3243" to-port="0" />
		<edge from-layer="3241" from-port="0" to-layer="3242" to-port="0" />
		<edge from-layer="3242" from-port="1" to-layer="3243" to-port="1" />
		<edge from-layer="3243" from-port="2" to-layer="3245" to-port="0" />
		<edge from-layer="3244" from-port="0" to-layer="3245" to-port="1" />
		<edge from-layer="3245" from-port="2" to-layer="3246" to-port="0" />
		<edge from-layer="3246" from-port="1" to-layer="3247" to-port="1" />
		<edge from-layer="3247" from-port="2" to-layer="3249" to-port="0" />
		<edge from-layer="3248" from-port="0" to-layer="3249" to-port="1" />
		<edge from-layer="3249" from-port="2" to-layer="3251" to-port="0" />
		<edge from-layer="3250" from-port="0" to-layer="3251" to-port="1" />
		<edge from-layer="3251" from-port="2" to-layer="3260" to-port="0" />
		<edge from-layer="3252" from-port="0" to-layer="3253" to-port="0" />
		<edge from-layer="3253" from-port="1" to-layer="3256" to-port="0" />
		<edge from-layer="3254" from-port="0" to-layer="3255" to-port="0" />
		<edge from-layer="3255" from-port="1" to-layer="3256" to-port="1" />
		<edge from-layer="3256" from-port="2" to-layer="3258" to-port="0" />
		<edge from-layer="3257" from-port="0" to-layer="3258" to-port="1" />
		<edge from-layer="3258" from-port="2" to-layer="3259" to-port="0" />
		<edge from-layer="3259" from-port="1" to-layer="3260" to-port="1" />
		<edge from-layer="3260" from-port="2" to-layer="3262" to-port="0" />
		<edge from-layer="3261" from-port="0" to-layer="3262" to-port="1" />
		<edge from-layer="3262" from-port="2" to-layer="3263" to-port="0" />
		<edge from-layer="3263" from-port="2" to-layer="3265" to-port="0" />
		<edge from-layer="3263" from-port="2" to-layer="3290" to-port="1" />
		<edge from-layer="3264" from-port="0" to-layer="3265" to-port="1" />
		<edge from-layer="3265" from-port="2" to-layer="3274" to-port="0" />
		<edge from-layer="3266" from-port="0" to-layer="3267" to-port="0" />
		<edge from-layer="3267" from-port="1" to-layer="3270" to-port="0" />
		<edge from-layer="3268" from-port="0" to-layer="3269" to-port="0" />
		<edge from-layer="3269" from-port="1" to-layer="3270" to-port="1" />
		<edge from-layer="3270" from-port="2" to-layer="3272" to-port="0" />
		<edge from-layer="3271" from-port="0" to-layer="3272" to-port="1" />
		<edge from-layer="3272" from-port="2" to-layer="3273" to-port="0" />
		<edge from-layer="3273" from-port="1" to-layer="3274" to-port="1" />
		<edge from-layer="3274" from-port="2" to-layer="3276" to-port="0" />
		<edge from-layer="3275" from-port="0" to-layer="3276" to-port="1" />
		<edge from-layer="3276" from-port="2" to-layer="3278" to-port="0" />
		<edge from-layer="3277" from-port="0" to-layer="3278" to-port="1" />
		<edge from-layer="3278" from-port="2" to-layer="3287" to-port="0" />
		<edge from-layer="3279" from-port="0" to-layer="3280" to-port="0" />
		<edge from-layer="3280" from-port="1" to-layer="3283" to-port="0" />
		<edge from-layer="3281" from-port="0" to-layer="3282" to-port="0" />
		<edge from-layer="3282" from-port="1" to-layer="3283" to-port="1" />
		<edge from-layer="3283" from-port="2" to-layer="3285" to-port="0" />
		<edge from-layer="3284" from-port="0" to-layer="3285" to-port="1" />
		<edge from-layer="3285" from-port="2" to-layer="3286" to-port="0" />
		<edge from-layer="3286" from-port="1" to-layer="3287" to-port="1" />
		<edge from-layer="3287" from-port="2" to-layer="3289" to-port="0" />
		<edge from-layer="3288" from-port="0" to-layer="3289" to-port="1" />
		<edge from-layer="3289" from-port="2" to-layer="3290" to-port="0" />
		<edge from-layer="3290" from-port="2" to-layer="3291" to-port="1" />
		<edge from-layer="3291" from-port="2" to-layer="3293" to-port="0" />
		<edge from-layer="3292" from-port="0" to-layer="3293" to-port="1" />
		<edge from-layer="3293" from-port="2" to-layer="3295" to-port="0" />
		<edge from-layer="3294" from-port="0" to-layer="3295" to-port="1" />
		<edge from-layer="3295" from-port="2" to-layer="3304" to-port="0" />
		<edge from-layer="3296" from-port="0" to-layer="3297" to-port="0" />
		<edge from-layer="3297" from-port="1" to-layer="3300" to-port="0" />
		<edge from-layer="3298" from-port="0" to-layer="3299" to-port="0" />
		<edge from-layer="3299" from-port="1" to-layer="3300" to-port="1" />
		<edge from-layer="3300" from-port="2" to-layer="3302" to-port="0" />
		<edge from-layer="3301" from-port="0" to-layer="3302" to-port="1" />
		<edge from-layer="3302" from-port="2" to-layer="3303" to-port="0" />
		<edge from-layer="3303" from-port="1" to-layer="3304" to-port="1" />
		<edge from-layer="3304" from-port="2" to-layer="3306" to-port="0" />
		<edge from-layer="3305" from-port="0" to-layer="3306" to-port="1" />
		<edge from-layer="3306" from-port="2" to-layer="3308" to-port="0" />
		<edge from-layer="3306" from-port="2" to-layer="3412" to-port="1" />
		<edge from-layer="3306" from-port="2" to-layer="3492" to-port="1" />
		<edge from-layer="3306" from-port="2" to-layer="3333" to-port="1" />
		<edge from-layer="3307" from-port="0" to-layer="3308" to-port="1" />
		<edge from-layer="3308" from-port="2" to-layer="3396" to-port="0" />
		<edge from-layer="3308" from-port="2" to-layer="3476" to-port="0" />
		<edge from-layer="3308" from-port="2" to-layer="3317" to-port="0" />
		<edge from-layer="3309" from-port="0" to-layer="3310" to-port="0" />
		<edge from-layer="3310" from-port="1" to-layer="3313" to-port="0" />
		<edge from-layer="3311" from-port="0" to-layer="3312" to-port="0" />
		<edge from-layer="3312" from-port="1" to-layer="3313" to-port="1" />
		<edge from-layer="3313" from-port="2" to-layer="3315" to-port="0" />
		<edge from-layer="3314" from-port="0" to-layer="3315" to-port="1" />
		<edge from-layer="3315" from-port="2" to-layer="3316" to-port="0" />
		<edge from-layer="3316" from-port="1" to-layer="3317" to-port="1" />
		<edge from-layer="3317" from-port="2" to-layer="3319" to-port="0" />
		<edge from-layer="3318" from-port="0" to-layer="3319" to-port="1" />
		<edge from-layer="3319" from-port="2" to-layer="3321" to-port="0" />
		<edge from-layer="3320" from-port="0" to-layer="3321" to-port="1" />
		<edge from-layer="3321" from-port="2" to-layer="3330" to-port="0" />
		<edge from-layer="3322" from-port="0" to-layer="3323" to-port="0" />
		<edge from-layer="3323" from-port="1" to-layer="3326" to-port="0" />
		<edge from-layer="3324" from-port="0" to-layer="3325" to-port="0" />
		<edge from-layer="3325" from-port="1" to-layer="3326" to-port="1" />
		<edge from-layer="3326" from-port="2" to-layer="3328" to-port="0" />
		<edge from-layer="3327" from-port="0" to-layer="3328" to-port="1" />
		<edge from-layer="3328" from-port="2" to-layer="3329" to-port="0" />
		<edge from-layer="3329" from-port="1" to-layer="3330" to-port="1" />
		<edge from-layer="3330" from-port="2" to-layer="3332" to-port="0" />
		<edge from-layer="3331" from-port="0" to-layer="3332" to-port="1" />
		<edge from-layer="3332" from-port="2" to-layer="3333" to-port="0" />
		<edge from-layer="3333" from-port="2" to-layer="3335" to-port="0" />
		<edge from-layer="3333" from-port="2" to-layer="3360" to-port="1" />
		<edge from-layer="3334" from-port="0" to-layer="3335" to-port="1" />
		<edge from-layer="3335" from-port="2" to-layer="3344" to-port="0" />
		<edge from-layer="3336" from-port="0" to-layer="3337" to-port="0" />
		<edge from-layer="3337" from-port="1" to-layer="3340" to-port="0" />
		<edge from-layer="3338" from-port="0" to-layer="3339" to-port="0" />
		<edge from-layer="3339" from-port="1" to-layer="3340" to-port="1" />
		<edge from-layer="3340" from-port="2" to-layer="3342" to-port="0" />
		<edge from-layer="3341" from-port="0" to-layer="3342" to-port="1" />
		<edge from-layer="3342" from-port="2" to-layer="3343" to-port="0" />
		<edge from-layer="3343" from-port="1" to-layer="3344" to-port="1" />
		<edge from-layer="3344" from-port="2" to-layer="3346" to-port="0" />
		<edge from-layer="3345" from-port="0" to-layer="3346" to-port="1" />
		<edge from-layer="3346" from-port="2" to-layer="3348" to-port="0" />
		<edge from-layer="3347" from-port="0" to-layer="3348" to-port="1" />
		<edge from-layer="3348" from-port="2" to-layer="3357" to-port="0" />
		<edge from-layer="3349" from-port="0" to-layer="3350" to-port="0" />
		<edge from-layer="3350" from-port="1" to-layer="3353" to-port="0" />
		<edge from-layer="3351" from-port="0" to-layer="3352" to-port="0" />
		<edge from-layer="3352" from-port="1" to-layer="3353" to-port="1" />
		<edge from-layer="3353" from-port="2" to-layer="3355" to-port="0" />
		<edge from-layer="3354" from-port="0" to-layer="3355" to-port="1" />
		<edge from-layer="3355" from-port="2" to-layer="3356" to-port="0" />
		<edge from-layer="3356" from-port="1" to-layer="3357" to-port="1" />
		<edge from-layer="3357" from-port="2" to-layer="3359" to-port="0" />
		<edge from-layer="3358" from-port="0" to-layer="3359" to-port="1" />
		<edge from-layer="3359" from-port="2" to-layer="3360" to-port="0" />
		<edge from-layer="3360" from-port="2" to-layer="3362" to-port="0" />
		<edge from-layer="3360" from-port="2" to-layer="3387" to-port="1" />
		<edge from-layer="3361" from-port="0" to-layer="3362" to-port="1" />
		<edge from-layer="3362" from-port="2" to-layer="3371" to-port="0" />
		<edge from-layer="3363" from-port="0" to-layer="3364" to-port="0" />
		<edge from-layer="3364" from-port="1" to-layer="3367" to-port="0" />
		<edge from-layer="3365" from-port="0" to-layer="3366" to-port="0" />
		<edge from-layer="3366" from-port="1" to-layer="3367" to-port="1" />
		<edge from-layer="3367" from-port="2" to-layer="3369" to-port="0" />
		<edge from-layer="3368" from-port="0" to-layer="3369" to-port="1" />
		<edge from-layer="3369" from-port="2" to-layer="3370" to-port="0" />
		<edge from-layer="3370" from-port="1" to-layer="3371" to-port="1" />
		<edge from-layer="3371" from-port="2" to-layer="3373" to-port="0" />
		<edge from-layer="3372" from-port="0" to-layer="3373" to-port="1" />
		<edge from-layer="3373" from-port="2" to-layer="3375" to-port="0" />
		<edge from-layer="3374" from-port="0" to-layer="3375" to-port="1" />
		<edge from-layer="3375" from-port="2" to-layer="3384" to-port="0" />
		<edge from-layer="3376" from-port="0" to-layer="3377" to-port="0" />
		<edge from-layer="3377" from-port="1" to-layer="3380" to-port="0" />
		<edge from-layer="3378" from-port="0" to-layer="3379" to-port="0" />
		<edge from-layer="3379" from-port="1" to-layer="3380" to-port="1" />
		<edge from-layer="3380" from-port="2" to-layer="3382" to-port="0" />
		<edge from-layer="3381" from-port="0" to-layer="3382" to-port="1" />
		<edge from-layer="3382" from-port="2" to-layer="3383" to-port="0" />
		<edge from-layer="3383" from-port="1" to-layer="3384" to-port="1" />
		<edge from-layer="3384" from-port="2" to-layer="3386" to-port="0" />
		<edge from-layer="3385" from-port="0" to-layer="3386" to-port="1" />
		<edge from-layer="3386" from-port="2" to-layer="3387" to-port="0" />
		<edge from-layer="3387" from-port="2" to-layer="3467" to-port="0" />
		<edge from-layer="3388" from-port="0" to-layer="3389" to-port="0" />
		<edge from-layer="3389" from-port="1" to-layer="3392" to-port="0" />
		<edge from-layer="3390" from-port="0" to-layer="3391" to-port="0" />
		<edge from-layer="3391" from-port="1" to-layer="3392" to-port="1" />
		<edge from-layer="3392" from-port="2" to-layer="3394" to-port="0" />
		<edge from-layer="3393" from-port="0" to-layer="3394" to-port="1" />
		<edge from-layer="3394" from-port="2" to-layer="3395" to-port="0" />
		<edge from-layer="3395" from-port="1" to-layer="3396" to-port="1" />
		<edge from-layer="3396" from-port="2" to-layer="3398" to-port="0" />
		<edge from-layer="3397" from-port="0" to-layer="3398" to-port="1" />
		<edge from-layer="3398" from-port="2" to-layer="3400" to-port="0" />
		<edge from-layer="3399" from-port="0" to-layer="3400" to-port="1" />
		<edge from-layer="3400" from-port="2" to-layer="3409" to-port="0" />
		<edge from-layer="3401" from-port="0" to-layer="3402" to-port="0" />
		<edge from-layer="3402" from-port="1" to-layer="3405" to-port="0" />
		<edge from-layer="3403" from-port="0" to-layer="3404" to-port="0" />
		<edge from-layer="3404" from-port="1" to-layer="3405" to-port="1" />
		<edge from-layer="3405" from-port="2" to-layer="3407" to-port="0" />
		<edge from-layer="3406" from-port="0" to-layer="3407" to-port="1" />
		<edge from-layer="3407" from-port="2" to-layer="3408" to-port="0" />
		<edge from-layer="3408" from-port="1" to-layer="3409" to-port="1" />
		<edge from-layer="3409" from-port="2" to-layer="3411" to-port="0" />
		<edge from-layer="3410" from-port="0" to-layer="3411" to-port="1" />
		<edge from-layer="3411" from-port="2" to-layer="3412" to-port="0" />
		<edge from-layer="3412" from-port="2" to-layer="3439" to-port="1" />
		<edge from-layer="3412" from-port="2" to-layer="3414" to-port="0" />
		<edge from-layer="3413" from-port="0" to-layer="3414" to-port="1" />
		<edge from-layer="3414" from-port="2" to-layer="3423" to-port="0" />
		<edge from-layer="3415" from-port="0" to-layer="3416" to-port="0" />
		<edge from-layer="3416" from-port="1" to-layer="3419" to-port="0" />
		<edge from-layer="3417" from-port="0" to-layer="3418" to-port="0" />
		<edge from-layer="3418" from-port="1" to-layer="3419" to-port="1" />
		<edge from-layer="3419" from-port="2" to-layer="3421" to-port="0" />
		<edge from-layer="3420" from-port="0" to-layer="3421" to-port="1" />
		<edge from-layer="3421" from-port="2" to-layer="3422" to-port="0" />
		<edge from-layer="3422" from-port="1" to-layer="3423" to-port="1" />
		<edge from-layer="3423" from-port="2" to-layer="3425" to-port="0" />
		<edge from-layer="3424" from-port="0" to-layer="3425" to-port="1" />
		<edge from-layer="3425" from-port="2" to-layer="3427" to-port="0" />
		<edge from-layer="3426" from-port="0" to-layer="3427" to-port="1" />
		<edge from-layer="3427" from-port="2" to-layer="3436" to-port="0" />
		<edge from-layer="3428" from-port="0" to-layer="3429" to-port="0" />
		<edge from-layer="3429" from-port="1" to-layer="3432" to-port="0" />
		<edge from-layer="3430" from-port="0" to-layer="3431" to-port="0" />
		<edge from-layer="3431" from-port="1" to-layer="3432" to-port="1" />
		<edge from-layer="3432" from-port="2" to-layer="3434" to-port="0" />
		<edge from-layer="3433" from-port="0" to-layer="3434" to-port="1" />
		<edge from-layer="3434" from-port="2" to-layer="3435" to-port="0" />
		<edge from-layer="3435" from-port="1" to-layer="3436" to-port="1" />
		<edge from-layer="3436" from-port="2" to-layer="3438" to-port="0" />
		<edge from-layer="3437" from-port="0" to-layer="3438" to-port="1" />
		<edge from-layer="3438" from-port="2" to-layer="3439" to-port="0" />
		<edge from-layer="3439" from-port="2" to-layer="3466" to-port="1" />
		<edge from-layer="3439" from-port="2" to-layer="3441" to-port="0" />
		<edge from-layer="3440" from-port="0" to-layer="3441" to-port="1" />
		<edge from-layer="3441" from-port="2" to-layer="3450" to-port="0" />
		<edge from-layer="3442" from-port="0" to-layer="3443" to-port="0" />
		<edge from-layer="3443" from-port="1" to-layer="3446" to-port="0" />
		<edge from-layer="3444" from-port="0" to-layer="3445" to-port="0" />
		<edge from-layer="3445" from-port="1" to-layer="3446" to-port="1" />
		<edge from-layer="3446" from-port="2" to-layer="3448" to-port="0" />
		<edge from-layer="3447" from-port="0" to-layer="3448" to-port="1" />
		<edge from-layer="3448" from-port="2" to-layer="3449" to-port="0" />
		<edge from-layer="3449" from-port="1" to-layer="3450" to-port="1" />
		<edge from-layer="3450" from-port="2" to-layer="3452" to-port="0" />
		<edge from-layer="3451" from-port="0" to-layer="3452" to-port="1" />
		<edge from-layer="3452" from-port="2" to-layer="3454" to-port="0" />
		<edge from-layer="3453" from-port="0" to-layer="3454" to-port="1" />
		<edge from-layer="3454" from-port="2" to-layer="3463" to-port="0" />
		<edge from-layer="3455" from-port="0" to-layer="3456" to-port="0" />
		<edge from-layer="3456" from-port="1" to-layer="3459" to-port="0" />
		<edge from-layer="3457" from-port="0" to-layer="3458" to-port="0" />
		<edge from-layer="3458" from-port="1" to-layer="3459" to-port="1" />
		<edge from-layer="3459" from-port="2" to-layer="3461" to-port="0" />
		<edge from-layer="3460" from-port="0" to-layer="3461" to-port="1" />
		<edge from-layer="3461" from-port="2" to-layer="3462" to-port="0" />
		<edge from-layer="3462" from-port="1" to-layer="3463" to-port="1" />
		<edge from-layer="3463" from-port="2" to-layer="3465" to-port="0" />
		<edge from-layer="3464" from-port="0" to-layer="3465" to-port="1" />
		<edge from-layer="3465" from-port="2" to-layer="3466" to-port="0" />
		<edge from-layer="3466" from-port="2" to-layer="3467" to-port="1" />
		<edge from-layer="3467" from-port="2" to-layer="3547" to-port="0" />
		<edge from-layer="3468" from-port="0" to-layer="3469" to-port="0" />
		<edge from-layer="3469" from-port="1" to-layer="3472" to-port="0" />
		<edge from-layer="3470" from-port="0" to-layer="3471" to-port="0" />
		<edge from-layer="3471" from-port="1" to-layer="3472" to-port="1" />
		<edge from-layer="3472" from-port="2" to-layer="3474" to-port="0" />
		<edge from-layer="3473" from-port="0" to-layer="3474" to-port="1" />
		<edge from-layer="3474" from-port="2" to-layer="3475" to-port="0" />
		<edge from-layer="3475" from-port="1" to-layer="3476" to-port="1" />
		<edge from-layer="3476" from-port="2" to-layer="3478" to-port="0" />
		<edge from-layer="3477" from-port="0" to-layer="3478" to-port="1" />
		<edge from-layer="3478" from-port="2" to-layer="3480" to-port="0" />
		<edge from-layer="3479" from-port="0" to-layer="3480" to-port="1" />
		<edge from-layer="3480" from-port="2" to-layer="3489" to-port="0" />
		<edge from-layer="3481" from-port="0" to-layer="3482" to-port="0" />
		<edge from-layer="3482" from-port="1" to-layer="3485" to-port="0" />
		<edge from-layer="3483" from-port="0" to-layer="3484" to-port="0" />
		<edge from-layer="3484" from-port="1" to-layer="3485" to-port="1" />
		<edge from-layer="3485" from-port="2" to-layer="3487" to-port="0" />
		<edge from-layer="3486" from-port="0" to-layer="3487" to-port="1" />
		<edge from-layer="3487" from-port="2" to-layer="3488" to-port="0" />
		<edge from-layer="3488" from-port="1" to-layer="3489" to-port="1" />
		<edge from-layer="3489" from-port="2" to-layer="3491" to-port="0" />
		<edge from-layer="3490" from-port="0" to-layer="3491" to-port="1" />
		<edge from-layer="3491" from-port="2" to-layer="3492" to-port="0" />
		<edge from-layer="3492" from-port="2" to-layer="3494" to-port="0" />
		<edge from-layer="3492" from-port="2" to-layer="3519" to-port="1" />
		<edge from-layer="3493" from-port="0" to-layer="3494" to-port="1" />
		<edge from-layer="3494" from-port="2" to-layer="3503" to-port="0" />
		<edge from-layer="3495" from-port="0" to-layer="3496" to-port="0" />
		<edge from-layer="3496" from-port="1" to-layer="3499" to-port="0" />
		<edge from-layer="3497" from-port="0" to-layer="3498" to-port="0" />
		<edge from-layer="3498" from-port="1" to-layer="3499" to-port="1" />
		<edge from-layer="3499" from-port="2" to-layer="3501" to-port="0" />
		<edge from-layer="3500" from-port="0" to-layer="3501" to-port="1" />
		<edge from-layer="3501" from-port="2" to-layer="3502" to-port="0" />
		<edge from-layer="3502" from-port="1" to-layer="3503" to-port="1" />
		<edge from-layer="3503" from-port="2" to-layer="3505" to-port="0" />
		<edge from-layer="3504" from-port="0" to-layer="3505" to-port="1" />
		<edge from-layer="3505" from-port="2" to-layer="3507" to-port="0" />
		<edge from-layer="3506" from-port="0" to-layer="3507" to-port="1" />
		<edge from-layer="3507" from-port="2" to-layer="3516" to-port="0" />
		<edge from-layer="3508" from-port="0" to-layer="3509" to-port="0" />
		<edge from-layer="3509" from-port="1" to-layer="3512" to-port="0" />
		<edge from-layer="3510" from-port="0" to-layer="3511" to-port="0" />
		<edge from-layer="3511" from-port="1" to-layer="3512" to-port="1" />
		<edge from-layer="3512" from-port="2" to-layer="3514" to-port="0" />
		<edge from-layer="3513" from-port="0" to-layer="3514" to-port="1" />
		<edge from-layer="3514" from-port="2" to-layer="3515" to-port="0" />
		<edge from-layer="3515" from-port="1" to-layer="3516" to-port="1" />
		<edge from-layer="3516" from-port="2" to-layer="3518" to-port="0" />
		<edge from-layer="3517" from-port="0" to-layer="3518" to-port="1" />
		<edge from-layer="3518" from-port="2" to-layer="3519" to-port="0" />
		<edge from-layer="3519" from-port="2" to-layer="3521" to-port="0" />
		<edge from-layer="3519" from-port="2" to-layer="3546" to-port="1" />
		<edge from-layer="3520" from-port="0" to-layer="3521" to-port="1" />
		<edge from-layer="3521" from-port="2" to-layer="3530" to-port="0" />
		<edge from-layer="3522" from-port="0" to-layer="3523" to-port="0" />
		<edge from-layer="3523" from-port="1" to-layer="3526" to-port="0" />
		<edge from-layer="3524" from-port="0" to-layer="3525" to-port="0" />
		<edge from-layer="3525" from-port="1" to-layer="3526" to-port="1" />
		<edge from-layer="3526" from-port="2" to-layer="3528" to-port="0" />
		<edge from-layer="3527" from-port="0" to-layer="3528" to-port="1" />
		<edge from-layer="3528" from-port="2" to-layer="3529" to-port="0" />
		<edge from-layer="3529" from-port="1" to-layer="3530" to-port="1" />
		<edge from-layer="3530" from-port="2" to-layer="3532" to-port="0" />
		<edge from-layer="3531" from-port="0" to-layer="3532" to-port="1" />
		<edge from-layer="3532" from-port="2" to-layer="3534" to-port="0" />
		<edge from-layer="3533" from-port="0" to-layer="3534" to-port="1" />
		<edge from-layer="3534" from-port="2" to-layer="3543" to-port="0" />
		<edge from-layer="3535" from-port="0" to-layer="3536" to-port="0" />
		<edge from-layer="3536" from-port="1" to-layer="3539" to-port="0" />
		<edge from-layer="3537" from-port="0" to-layer="3538" to-port="0" />
		<edge from-layer="3538" from-port="1" to-layer="3539" to-port="1" />
		<edge from-layer="3539" from-port="2" to-layer="3541" to-port="0" />
		<edge from-layer="3540" from-port="0" to-layer="3541" to-port="1" />
		<edge from-layer="3541" from-port="2" to-layer="3542" to-port="0" />
		<edge from-layer="3542" from-port="1" to-layer="3543" to-port="1" />
		<edge from-layer="3543" from-port="2" to-layer="3545" to-port="0" />
		<edge from-layer="3544" from-port="0" to-layer="3545" to-port="1" />
		<edge from-layer="3545" from-port="2" to-layer="3546" to-port="0" />
		<edge from-layer="3546" from-port="2" to-layer="3547" to-port="1" />
		<edge from-layer="3547" from-port="2" to-layer="3549" to-port="0" />
		<edge from-layer="3548" from-port="0" to-layer="3549" to-port="1" />
		<edge from-layer="3549" from-port="2" to-layer="3551" to-port="0" />
		<edge from-layer="3550" from-port="0" to-layer="3551" to-port="1" />
		<edge from-layer="3551" from-port="2" to-layer="3560" to-port="0" />
		<edge from-layer="3552" from-port="0" to-layer="3553" to-port="0" />
		<edge from-layer="3553" from-port="1" to-layer="3556" to-port="0" />
		<edge from-layer="3554" from-port="0" to-layer="3555" to-port="0" />
		<edge from-layer="3555" from-port="1" to-layer="3556" to-port="1" />
		<edge from-layer="3556" from-port="2" to-layer="3558" to-port="0" />
		<edge from-layer="3557" from-port="0" to-layer="3558" to-port="1" />
		<edge from-layer="3558" from-port="2" to-layer="3559" to-port="0" />
		<edge from-layer="3559" from-port="1" to-layer="3560" to-port="1" />
		<edge from-layer="3560" from-port="2" to-layer="3562" to-port="0" />
		<edge from-layer="3561" from-port="0" to-layer="3562" to-port="1" />
		<edge from-layer="3562" from-port="2" to-layer="3564" to-port="0" />
		<edge from-layer="3562" from-port="2" to-layer="3589" to-port="1" />
		<edge from-layer="3562" from-port="2" to-layer="3668" to-port="1" />
		<edge from-layer="3562" from-port="2" to-layer="3748" to-port="1" />
		<edge from-layer="3563" from-port="0" to-layer="3564" to-port="1" />
		<edge from-layer="3564" from-port="2" to-layer="3573" to-port="0" />
		<edge from-layer="3564" from-port="2" to-layer="3652" to-port="0" />
		<edge from-layer="3564" from-port="2" to-layer="3732" to-port="0" />
		<edge from-layer="3565" from-port="0" to-layer="3566" to-port="0" />
		<edge from-layer="3566" from-port="1" to-layer="3569" to-port="0" />
		<edge from-layer="3567" from-port="0" to-layer="3568" to-port="0" />
		<edge from-layer="3568" from-port="1" to-layer="3569" to-port="1" />
		<edge from-layer="3569" from-port="2" to-layer="3571" to-port="0" />
		<edge from-layer="3570" from-port="0" to-layer="3571" to-port="1" />
		<edge from-layer="3571" from-port="2" to-layer="3572" to-port="0" />
		<edge from-layer="3572" from-port="1" to-layer="3573" to-port="1" />
		<edge from-layer="3573" from-port="2" to-layer="3575" to-port="0" />
		<edge from-layer="3574" from-port="0" to-layer="3575" to-port="1" />
		<edge from-layer="3575" from-port="2" to-layer="3577" to-port="0" />
		<edge from-layer="3576" from-port="0" to-layer="3577" to-port="1" />
		<edge from-layer="3577" from-port="2" to-layer="3586" to-port="0" />
		<edge from-layer="3578" from-port="0" to-layer="3579" to-port="0" />
		<edge from-layer="3579" from-port="1" to-layer="3582" to-port="0" />
		<edge from-layer="3580" from-port="0" to-layer="3581" to-port="0" />
		<edge from-layer="3581" from-port="1" to-layer="3582" to-port="1" />
		<edge from-layer="3582" from-port="2" to-layer="3584" to-port="0" />
		<edge from-layer="3583" from-port="0" to-layer="3584" to-port="1" />
		<edge from-layer="3584" from-port="2" to-layer="3585" to-port="0" />
		<edge from-layer="3585" from-port="1" to-layer="3586" to-port="1" />
		<edge from-layer="3586" from-port="2" to-layer="3588" to-port="0" />
		<edge from-layer="3587" from-port="0" to-layer="3588" to-port="1" />
		<edge from-layer="3588" from-port="2" to-layer="3589" to-port="0" />
		<edge from-layer="3589" from-port="2" to-layer="3616" to-port="1" />
		<edge from-layer="3589" from-port="2" to-layer="3591" to-port="0" />
		<edge from-layer="3590" from-port="0" to-layer="3591" to-port="1" />
		<edge from-layer="3591" from-port="2" to-layer="3600" to-port="0" />
		<edge from-layer="3592" from-port="0" to-layer="3593" to-port="0" />
		<edge from-layer="3593" from-port="1" to-layer="3596" to-port="0" />
		<edge from-layer="3594" from-port="0" to-layer="3595" to-port="0" />
		<edge from-layer="3595" from-port="1" to-layer="3596" to-port="1" />
		<edge from-layer="3596" from-port="2" to-layer="3598" to-port="0" />
		<edge from-layer="3597" from-port="0" to-layer="3598" to-port="1" />
		<edge from-layer="3598" from-port="2" to-layer="3599" to-port="0" />
		<edge from-layer="3599" from-port="1" to-layer="3600" to-port="1" />
		<edge from-layer="3600" from-port="2" to-layer="3602" to-port="0" />
		<edge from-layer="3601" from-port="0" to-layer="3602" to-port="1" />
		<edge from-layer="3602" from-port="2" to-layer="3604" to-port="0" />
		<edge from-layer="3603" from-port="0" to-layer="3604" to-port="1" />
		<edge from-layer="3604" from-port="2" to-layer="3613" to-port="0" />
		<edge from-layer="3605" from-port="0" to-layer="3606" to-port="0" />
		<edge from-layer="3606" from-port="1" to-layer="3609" to-port="0" />
		<edge from-layer="3607" from-port="0" to-layer="3608" to-port="0" />
		<edge from-layer="3608" from-port="1" to-layer="3609" to-port="1" />
		<edge from-layer="3609" from-port="2" to-layer="3611" to-port="0" />
		<edge from-layer="3610" from-port="0" to-layer="3611" to-port="1" />
		<edge from-layer="3611" from-port="2" to-layer="3612" to-port="0" />
		<edge from-layer="3612" from-port="1" to-layer="3613" to-port="1" />
		<edge from-layer="3613" from-port="2" to-layer="3615" to-port="0" />
		<edge from-layer="3614" from-port="0" to-layer="3615" to-port="1" />
		<edge from-layer="3615" from-port="2" to-layer="3616" to-port="0" />
		<edge from-layer="3616" from-port="2" to-layer="3618" to-port="0" />
		<edge from-layer="3616" from-port="2" to-layer="3643" to-port="1" />
		<edge from-layer="3617" from-port="0" to-layer="3618" to-port="1" />
		<edge from-layer="3618" from-port="2" to-layer="3627" to-port="0" />
		<edge from-layer="3619" from-port="0" to-layer="3620" to-port="0" />
		<edge from-layer="3620" from-port="1" to-layer="3623" to-port="0" />
		<edge from-layer="3621" from-port="0" to-layer="3622" to-port="0" />
		<edge from-layer="3622" from-port="1" to-layer="3623" to-port="1" />
		<edge from-layer="3623" from-port="2" to-layer="3625" to-port="0" />
		<edge from-layer="3624" from-port="0" to-layer="3625" to-port="1" />
		<edge from-layer="3625" from-port="2" to-layer="3626" to-port="0" />
		<edge from-layer="3626" from-port="1" to-layer="3627" to-port="1" />
		<edge from-layer="3627" from-port="2" to-layer="3629" to-port="0" />
		<edge from-layer="3628" from-port="0" to-layer="3629" to-port="1" />
		<edge from-layer="3629" from-port="2" to-layer="3631" to-port="0" />
		<edge from-layer="3630" from-port="0" to-layer="3631" to-port="1" />
		<edge from-layer="3631" from-port="2" to-layer="3640" to-port="0" />
		<edge from-layer="3632" from-port="0" to-layer="3633" to-port="0" />
		<edge from-layer="3633" from-port="1" to-layer="3636" to-port="0" />
		<edge from-layer="3634" from-port="0" to-layer="3635" to-port="0" />
		<edge from-layer="3635" from-port="1" to-layer="3636" to-port="1" />
		<edge from-layer="3636" from-port="2" to-layer="3638" to-port="0" />
		<edge from-layer="3637" from-port="0" to-layer="3638" to-port="1" />
		<edge from-layer="3638" from-port="2" to-layer="3639" to-port="0" />
		<edge from-layer="3639" from-port="1" to-layer="3640" to-port="1" />
		<edge from-layer="3640" from-port="2" to-layer="3642" to-port="0" />
		<edge from-layer="3641" from-port="0" to-layer="3642" to-port="1" />
		<edge from-layer="3642" from-port="2" to-layer="3643" to-port="0" />
		<edge from-layer="3643" from-port="2" to-layer="3723" to-port="0" />
		<edge from-layer="3644" from-port="0" to-layer="3645" to-port="0" />
		<edge from-layer="3645" from-port="1" to-layer="3648" to-port="0" />
		<edge from-layer="3646" from-port="0" to-layer="3647" to-port="0" />
		<edge from-layer="3647" from-port="1" to-layer="3648" to-port="1" />
		<edge from-layer="3648" from-port="2" to-layer="3650" to-port="0" />
		<edge from-layer="3649" from-port="0" to-layer="3650" to-port="1" />
		<edge from-layer="3650" from-port="2" to-layer="3651" to-port="0" />
		<edge from-layer="3651" from-port="1" to-layer="3652" to-port="1" />
		<edge from-layer="3652" from-port="2" to-layer="3654" to-port="0" />
		<edge from-layer="3653" from-port="0" to-layer="3654" to-port="1" />
		<edge from-layer="3654" from-port="2" to-layer="3656" to-port="0" />
		<edge from-layer="3655" from-port="0" to-layer="3656" to-port="1" />
		<edge from-layer="3656" from-port="2" to-layer="3665" to-port="0" />
		<edge from-layer="3657" from-port="0" to-layer="3658" to-port="0" />
		<edge from-layer="3658" from-port="1" to-layer="3661" to-port="0" />
		<edge from-layer="3659" from-port="0" to-layer="3660" to-port="0" />
		<edge from-layer="3660" from-port="1" to-layer="3661" to-port="1" />
		<edge from-layer="3661" from-port="2" to-layer="3663" to-port="0" />
		<edge from-layer="3662" from-port="0" to-layer="3663" to-port="1" />
		<edge from-layer="3663" from-port="2" to-layer="3664" to-port="0" />
		<edge from-layer="3664" from-port="1" to-layer="3665" to-port="1" />
		<edge from-layer="3665" from-port="2" to-layer="3667" to-port="0" />
		<edge from-layer="3666" from-port="0" to-layer="3667" to-port="1" />
		<edge from-layer="3667" from-port="2" to-layer="3668" to-port="0" />
		<edge from-layer="3668" from-port="2" to-layer="3695" to-port="1" />
		<edge from-layer="3668" from-port="2" to-layer="3670" to-port="0" />
		<edge from-layer="3669" from-port="0" to-layer="3670" to-port="1" />
		<edge from-layer="3670" from-port="2" to-layer="3679" to-port="0" />
		<edge from-layer="3671" from-port="0" to-layer="3672" to-port="0" />
		<edge from-layer="3672" from-port="1" to-layer="3675" to-port="0" />
		<edge from-layer="3673" from-port="0" to-layer="3674" to-port="0" />
		<edge from-layer="3674" from-port="1" to-layer="3675" to-port="1" />
		<edge from-layer="3675" from-port="2" to-layer="3677" to-port="0" />
		<edge from-layer="3676" from-port="0" to-layer="3677" to-port="1" />
		<edge from-layer="3677" from-port="2" to-layer="3678" to-port="0" />
		<edge from-layer="3678" from-port="1" to-layer="3679" to-port="1" />
		<edge from-layer="3679" from-port="2" to-layer="3681" to-port="0" />
		<edge from-layer="3680" from-port="0" to-layer="3681" to-port="1" />
		<edge from-layer="3681" from-port="2" to-layer="3683" to-port="0" />
		<edge from-layer="3682" from-port="0" to-layer="3683" to-port="1" />
		<edge from-layer="3683" from-port="2" to-layer="3692" to-port="0" />
		<edge from-layer="3684" from-port="0" to-layer="3685" to-port="0" />
		<edge from-layer="3685" from-port="1" to-layer="3688" to-port="0" />
		<edge from-layer="3686" from-port="0" to-layer="3687" to-port="0" />
		<edge from-layer="3687" from-port="1" to-layer="3688" to-port="1" />
		<edge from-layer="3688" from-port="2" to-layer="3690" to-port="0" />
		<edge from-layer="3689" from-port="0" to-layer="3690" to-port="1" />
		<edge from-layer="3690" from-port="2" to-layer="3691" to-port="0" />
		<edge from-layer="3691" from-port="1" to-layer="3692" to-port="1" />
		<edge from-layer="3692" from-port="2" to-layer="3694" to-port="0" />
		<edge from-layer="3693" from-port="0" to-layer="3694" to-port="1" />
		<edge from-layer="3694" from-port="2" to-layer="3695" to-port="0" />
		<edge from-layer="3695" from-port="2" to-layer="3722" to-port="1" />
		<edge from-layer="3695" from-port="2" to-layer="3697" to-port="0" />
		<edge from-layer="3696" from-port="0" to-layer="3697" to-port="1" />
		<edge from-layer="3697" from-port="2" to-layer="3706" to-port="0" />
		<edge from-layer="3698" from-port="0" to-layer="3699" to-port="0" />
		<edge from-layer="3699" from-port="1" to-layer="3702" to-port="0" />
		<edge from-layer="3700" from-port="0" to-layer="3701" to-port="0" />
		<edge from-layer="3701" from-port="1" to-layer="3702" to-port="1" />
		<edge from-layer="3702" from-port="2" to-layer="3704" to-port="0" />
		<edge from-layer="3703" from-port="0" to-layer="3704" to-port="1" />
		<edge from-layer="3704" from-port="2" to-layer="3705" to-port="0" />
		<edge from-layer="3705" from-port="1" to-layer="3706" to-port="1" />
		<edge from-layer="3706" from-port="2" to-layer="3708" to-port="0" />
		<edge from-layer="3707" from-port="0" to-layer="3708" to-port="1" />
		<edge from-layer="3708" from-port="2" to-layer="3710" to-port="0" />
		<edge from-layer="3709" from-port="0" to-layer="3710" to-port="1" />
		<edge from-layer="3710" from-port="2" to-layer="3719" to-port="0" />
		<edge from-layer="3711" from-port="0" to-layer="3712" to-port="0" />
		<edge from-layer="3712" from-port="1" to-layer="3715" to-port="0" />
		<edge from-layer="3713" from-port="0" to-layer="3714" to-port="0" />
		<edge from-layer="3714" from-port="1" to-layer="3715" to-port="1" />
		<edge from-layer="3715" from-port="2" to-layer="3717" to-port="0" />
		<edge from-layer="3716" from-port="0" to-layer="3717" to-port="1" />
		<edge from-layer="3717" from-port="2" to-layer="3718" to-port="0" />
		<edge from-layer="3718" from-port="1" to-layer="3719" to-port="1" />
		<edge from-layer="3719" from-port="2" to-layer="3721" to-port="0" />
		<edge from-layer="3720" from-port="0" to-layer="3721" to-port="1" />
		<edge from-layer="3721" from-port="2" to-layer="3722" to-port="0" />
		<edge from-layer="3722" from-port="2" to-layer="3723" to-port="1" />
		<edge from-layer="3723" from-port="2" to-layer="3803" to-port="0" />
		<edge from-layer="3724" from-port="0" to-layer="3725" to-port="0" />
		<edge from-layer="3725" from-port="1" to-layer="3728" to-port="0" />
		<edge from-layer="3726" from-port="0" to-layer="3727" to-port="0" />
		<edge from-layer="3727" from-port="1" to-layer="3728" to-port="1" />
		<edge from-layer="3728" from-port="2" to-layer="3730" to-port="0" />
		<edge from-layer="3729" from-port="0" to-layer="3730" to-port="1" />
		<edge from-layer="3730" from-port="2" to-layer="3731" to-port="0" />
		<edge from-layer="3731" from-port="1" to-layer="3732" to-port="1" />
		<edge from-layer="3732" from-port="2" to-layer="3734" to-port="0" />
		<edge from-layer="3733" from-port="0" to-layer="3734" to-port="1" />
		<edge from-layer="3734" from-port="2" to-layer="3736" to-port="0" />
		<edge from-layer="3735" from-port="0" to-layer="3736" to-port="1" />
		<edge from-layer="3736" from-port="2" to-layer="3745" to-port="0" />
		<edge from-layer="3737" from-port="0" to-layer="3738" to-port="0" />
		<edge from-layer="3738" from-port="1" to-layer="3741" to-port="0" />
		<edge from-layer="3739" from-port="0" to-layer="3740" to-port="0" />
		<edge from-layer="3740" from-port="1" to-layer="3741" to-port="1" />
		<edge from-layer="3741" from-port="2" to-layer="3743" to-port="0" />
		<edge from-layer="3742" from-port="0" to-layer="3743" to-port="1" />
		<edge from-layer="3743" from-port="2" to-layer="3744" to-port="0" />
		<edge from-layer="3744" from-port="1" to-layer="3745" to-port="1" />
		<edge from-layer="3745" from-port="2" to-layer="3747" to-port="0" />
		<edge from-layer="3746" from-port="0" to-layer="3747" to-port="1" />
		<edge from-layer="3747" from-port="2" to-layer="3748" to-port="0" />
		<edge from-layer="3748" from-port="2" to-layer="3750" to-port="0" />
		<edge from-layer="3748" from-port="2" to-layer="3775" to-port="1" />
		<edge from-layer="3749" from-port="0" to-layer="3750" to-port="1" />
		<edge from-layer="3750" from-port="2" to-layer="3759" to-port="0" />
		<edge from-layer="3751" from-port="0" to-layer="3752" to-port="0" />
		<edge from-layer="3752" from-port="1" to-layer="3755" to-port="0" />
		<edge from-layer="3753" from-port="0" to-layer="3754" to-port="0" />
		<edge from-layer="3754" from-port="1" to-layer="3755" to-port="1" />
		<edge from-layer="3755" from-port="2" to-layer="3757" to-port="0" />
		<edge from-layer="3756" from-port="0" to-layer="3757" to-port="1" />
		<edge from-layer="3757" from-port="2" to-layer="3758" to-port="0" />
		<edge from-layer="3758" from-port="1" to-layer="3759" to-port="1" />
		<edge from-layer="3759" from-port="2" to-layer="3761" to-port="0" />
		<edge from-layer="3760" from-port="0" to-layer="3761" to-port="1" />
		<edge from-layer="3761" from-port="2" to-layer="3763" to-port="0" />
		<edge from-layer="3762" from-port="0" to-layer="3763" to-port="1" />
		<edge from-layer="3763" from-port="2" to-layer="3772" to-port="0" />
		<edge from-layer="3764" from-port="0" to-layer="3765" to-port="0" />
		<edge from-layer="3765" from-port="1" to-layer="3768" to-port="0" />
		<edge from-layer="3766" from-port="0" to-layer="3767" to-port="0" />
		<edge from-layer="3767" from-port="1" to-layer="3768" to-port="1" />
		<edge from-layer="3768" from-port="2" to-layer="3770" to-port="0" />
		<edge from-layer="3769" from-port="0" to-layer="3770" to-port="1" />
		<edge from-layer="3770" from-port="2" to-layer="3771" to-port="0" />
		<edge from-layer="3771" from-port="1" to-layer="3772" to-port="1" />
		<edge from-layer="3772" from-port="2" to-layer="3774" to-port="0" />
		<edge from-layer="3773" from-port="0" to-layer="3774" to-port="1" />
		<edge from-layer="3774" from-port="2" to-layer="3775" to-port="0" />
		<edge from-layer="3775" from-port="2" to-layer="3777" to-port="0" />
		<edge from-layer="3775" from-port="2" to-layer="3802" to-port="1" />
		<edge from-layer="3776" from-port="0" to-layer="3777" to-port="1" />
		<edge from-layer="3777" from-port="2" to-layer="3786" to-port="0" />
		<edge from-layer="3778" from-port="0" to-layer="3779" to-port="0" />
		<edge from-layer="3779" from-port="1" to-layer="3782" to-port="0" />
		<edge from-layer="3780" from-port="0" to-layer="3781" to-port="0" />
		<edge from-layer="3781" from-port="1" to-layer="3782" to-port="1" />
		<edge from-layer="3782" from-port="2" to-layer="3784" to-port="0" />
		<edge from-layer="3783" from-port="0" to-layer="3784" to-port="1" />
		<edge from-layer="3784" from-port="2" to-layer="3785" to-port="0" />
		<edge from-layer="3785" from-port="1" to-layer="3786" to-port="1" />
		<edge from-layer="3786" from-port="2" to-layer="3788" to-port="0" />
		<edge from-layer="3787" from-port="0" to-layer="3788" to-port="1" />
		<edge from-layer="3788" from-port="2" to-layer="3790" to-port="0" />
		<edge from-layer="3789" from-port="0" to-layer="3790" to-port="1" />
		<edge from-layer="3790" from-port="2" to-layer="3799" to-port="0" />
		<edge from-layer="3791" from-port="0" to-layer="3792" to-port="0" />
		<edge from-layer="3792" from-port="1" to-layer="3795" to-port="0" />
		<edge from-layer="3793" from-port="0" to-layer="3794" to-port="0" />
		<edge from-layer="3794" from-port="1" to-layer="3795" to-port="1" />
		<edge from-layer="3795" from-port="2" to-layer="3797" to-port="0" />
		<edge from-layer="3796" from-port="0" to-layer="3797" to-port="1" />
		<edge from-layer="3797" from-port="2" to-layer="3798" to-port="0" />
		<edge from-layer="3798" from-port="1" to-layer="3799" to-port="1" />
		<edge from-layer="3799" from-port="2" to-layer="3801" to-port="0" />
		<edge from-layer="3800" from-port="0" to-layer="3801" to-port="1" />
		<edge from-layer="3801" from-port="2" to-layer="3802" to-port="0" />
		<edge from-layer="3802" from-port="2" to-layer="3803" to-port="1" />
		<edge from-layer="3803" from-port="2" to-layer="3805" to-port="0" />
		<edge from-layer="3804" from-port="0" to-layer="3805" to-port="1" />
		<edge from-layer="3805" from-port="2" to-layer="3807" to-port="0" />
		<edge from-layer="3806" from-port="0" to-layer="3807" to-port="1" />
		<edge from-layer="3807" from-port="2" to-layer="3816" to-port="0" />
		<edge from-layer="3808" from-port="0" to-layer="3809" to-port="0" />
		<edge from-layer="3809" from-port="1" to-layer="3812" to-port="0" />
		<edge from-layer="3810" from-port="0" to-layer="3811" to-port="0" />
		<edge from-layer="3811" from-port="1" to-layer="3812" to-port="1" />
		<edge from-layer="3812" from-port="2" to-layer="3814" to-port="0" />
		<edge from-layer="3813" from-port="0" to-layer="3814" to-port="1" />
		<edge from-layer="3814" from-port="2" to-layer="3815" to-port="0" />
		<edge from-layer="3815" from-port="1" to-layer="3816" to-port="1" />
		<edge from-layer="3816" from-port="2" to-layer="3817" to-port="0" />
		<edge from-layer="3817" from-port="1" to-layer="3818" to-port="0" />
	</edges>
	<rt_info>
		<Runtime_version value="2025.1.0-18503-6fec06580ab-releases/2025/1" />
		<conversion_parameters>
			<framework value="pytorch" />
			<is_python_object value="True" />
		</conversion_parameters>
		<nncf>
			<friendly_names_were_updated value="True" />
			<weight_compression>
				<advanced_parameters value="{'statistics_path': None, 'awq_params': {'subset_size': 32, 'percent_to_apply': 0.002, 'alpha_min': 0.0, 'alpha_max': 1.0, 'steps': 100}, 'scale_estimation_params': {'subset_size': 64, 'initial_steps': 5, 'scale_steps': 5, 'weight_penalty': -1.0}, 'gptq_params': {'damp_percent': 0.1, 'block_size': 128, 'subset_size': 128}, 'lora_correction_params': {'adapter_rank': 8, 'num_iterations': 3, 'apply_regularization': True, 'subset_size': 128, 'use_int8_adapters': True}, 'lora_adapter_rank': 256}" />
				<all_layers value="False" />
				<awq value="False" />
				<backup_mode value="int8_asym" />
				<compression_format value="dequantize" />
				<gptq value="False" />
				<group_size value="-1" />
				<ignored_scope value="[]" />
				<lora_correction value="False" />
				<mode value="int8_asym" />
				<ratio value="1" />
				<scale_estimation value="False" />
				<sensitivity_metric value="weight_quantization_error" />
			</weight_compression>
		</nncf>
	</rt_info>
</net>
